logs/cifar10_quantized_best_cpu.pth (torch, 913996 bytes, 20 tensors)

features.0.weight f4 [32, 3, 3, 3]
0	0x3c264eec	0.010150652
1	0x3d39d2f4	0.045367196
2	0xbd8b1584	-0.06791213
3	0x3d86b896	0.06578176
4	0xbd59e426	-0.053196095
5	0x3ac94400	0.0015355349
6	0xbe0b2b83	-0.13590817
7	0x3e01d1ba	0.1267766
8	0x3dd5ec05	0.10445408
9	0xbe1efc87	-0.15526019
10	0x3e29261d	0.16518445
11	0x3df36d8f	0.11886131
12	0x3da17911	0.0788442
13	0x3d949122	0.072542444
14	0x3e13a6d5	0.1441911
15	0xbd6bb06f	-0.057541307
16	0x3e61c173	0.22046451
17	0x3dada7e2	0.08479287
18	0xbe2f7969	-0.17136158
19	0x3d542124	0.051789418
20	0x3ca76796	0.020435136
21	0xbe592628	-0.21205962
22	0xbdcfdf56	-0.1015002
23	0x3e1d97b3	0.153899
24	0xbea9955e	-0.3312177
25	0xbe1238ac	-0.14279431
26	0xbdb3d523	-0.08780887
27	0xbe425763	-0.18978648
28	0x3dd4af4b	0.10384997
29	0xbe648953	-0.2231801
30	0x3e5f26c0	0.21792126
31	0xbe57c100	-0.21069717
32	0x3e0c14b8	0.13679779
33	0x3cb8b39a	0.022546578
34	0xbe11070c	-0.14162844
35	0x3e0e83ba	0.13917437
36	0xbd815d45	-0.06316618
37	0x3e61b4bf	0.22041605
38	0xbd366301	-0.04452801
39	0xbbca51ca	-0.006174301
40	0xbb304962	-0.0026899208
41	0xbd7ca31d	-0.061678994
42	0x3d0fe578	0.035130948
43	0x3d0756ce	0.033041768
44	0x3d9a84ef	0.07544886
45	0xbe0603e9	-0.13087429
46	0x3e45122f	0.19245218
47	0xba03c162	-0.00050260697
48	0x3e44a6a6	0.19204196
49	0xbe03a830	-0.12857127
50	0xbe2953a6	-0.16535816
51	0xbcf04363	-0.029329007
52	0xbe48db1c	-0.19614834
53	0x3e44541a	0.19172707
54	0x3d05cdcd	0.03266697
55	0x3d732060	0.059357047
56	0x3d8b5867	0.06803971
57	0xbc921e16	-0.017836612
58	0x3e23be38	0.15990531
59	0xbdff9d55	-0.124811806
60	0xbd583f8b	-0.052794974
61	0xbe41d00d	-0.18927021
62	0x3d574a25	0.052560944
63	0x3c4494b2	0.011998342
64	0x3d05a137	0.03262445
65	0xbdfb085d	-0.122574545
66	0x3e6ead61	0.23308326
67	0xbdcef169	-0.10104639
68	0xbe26e491	-0.16298129
69	0xbdc59c0d	-0.09648905
70	0x3e1813d9	0.14851321
71	0x3d2b12ea	0.041766085
72	0x3ea9fe99	0.33202055
73	0xbe158969	-0.14603199
74	0xbe933532	-0.28751522
75	0xbc36b4fb	-0.011151548
76	0xbda06a00	-0.07832718
77	0x3c8afa7e	0.016965147
78	0x3e10fb19	0.14158286
79	0x3e36f05f	0.17865132
80	0xbdfe00de	-0.12402509
81	0xbe31acae	-0.17351028
82	0x3e3f4e75	0.18682273
83	0xbc00fb6d	-0.007872445
84	0x3d9fd33f	0.07803964
85	0xbe4466b8	-0.19179809
86	0x3e36eeca	0.17864528
87	0xbd4f9964	-0.050683394
88	0xbc690a1c	-0.014223602
89	0xbcaac487	-0.020845665
90	0xbd4ae681	-0.049536232
91	0xbc79d5ac	-0.015248697
92	0x3e2e4200	0.17017365
93	0x3dd4dd09	0.103937216
94	0xbea3c21f	-0.3198404
95	0xbd27a744	-0.040931
96	0x3e922f2d	0.28551617
97	0x3cdf4a82	0.027257208
98	0xbe266b10	-0.16251779
99	0xbe1f4813	-0.15554838
100	0x3d0d175b	0.0344461
101	0x3e148c36	0.14506611
102	0x3d5b3bce	0.05352383
103	0xbe792ead	-0.24334212
104	0x3dff773d	0.12473915
105	0x3db586c1	0.08863593
106	0x3d703373	0.058642816
107	0xbe09f1e7	-0.13471185
108	0x3de6be90	0.11266816
109	0x3d83a882	0.06428625
110	0x3e8faef0	0.28063154
111	0x3e5a4328	0.2131468
112	0x3e0e596a	0.13901296
113	0xbe0863f1	-0.13319375
114	0xbd800461	-0.06250835
115	0xbda429ad	-0.080157615
116	0x3cd9a59c	0.026568227
117	0xbe511fcf	-0.2042229
118	0xbe306a44	-0.17228037
119	0xbe35451e	-0.17702147
120	0xbe1b5619	-0.15169562
121	0xbe84b969	-0.25922707
122	0xbda6e6c6	-0.08149485
123	0xbe218a8d	-0.15775509
124	0xbe60a7ba	-0.21938983
125	0xbddbd448	-0.10733849
126	0xbca563ae	-0.020189133
127	0xbde410ca	-0.11136015
128	0x3e5f9bc8	0.2183677
129	0xbc77e69f	-0.015130668
130	0x3e511a82	0.20420268
131	0x3e389d59	0.18028773
132	0xbdf3ef4b	-0.11910876
133	0x3e4844fb	0.19557564
134	0x3dcce853	0.1000525
135	0xbe046ed2	-0.129329
136	0xbe39f547	-0.18159972
137	0xbe6e3509	-0.23262419
138	0x3d4c0d38	0.049817294
139	0xbd13e784	-0.036109462
140	0x3df65070	0.12027061
141	0xbe299f53	-0.16564684
142	0x3e0f1a60	0.13974905
143	0xbe0ddc4e	-0.13853571
144	0xbddd880e	-0.10816966
145	0x3d6c77a7	0.057731297
146	0x3d6a1912	0.057152815
147	0x3e36059b	0.17775576
148	0x3e8214d0	0.25406504
149	0xbd9f3828	-0.07774383
150	0x3cd56cf1	0.026052924
151	0xbd7e8720	-0.062140584
152	0xbcb792a0	-0.022408783
153	0xbe84b56b	-0.2591966
154	0x3e112ded	0.14177676
155	0xbe578c6a	-0.21049657
156	0x3de42572	0.111399546
157	0x3dfc3470	0.12314689
158	0x3df0907b	0.117463075
159	0xbe137e82	-0.14403728
160	0x3e2dc0e8	0.16968119
161	0x3c63fb48	0.013914891
162	0x3d56d207	0.05244639
163	0xbc1ccde4	-0.0095705725
164	0x3e290da1	0.16509105
165	0xbd83de50	-0.06438887
166	0xbe146333	-0.14490966
167	0x3e7ab5c0	0.24483395
168	0x3da7b249	0.08188302
169	0xbe1489db	-0.14505713
170	0xbe237c74	-0.15965444
171	0xbcd95d76	-0.026533823
172	0x3e21420a	0.15747848
173	0xbd416e87	-0.047224548
174	0xbe1608a5	-0.14651735
175	0xbe338ff6	-0.17535385
176	0xbdc2e4a9	-0.0951627
177	0x3deb6137	0.11493152
178	0x3dc73f0e	0.097288236
179	0xbe562e44	-0.20916086
180	0x3d74842d	0.059696365
181	0x3e2cf0df	0.1688876
182	0x3c091c3c	0.008368548
183	0xbdfc8796	-0.123305485
184	0x3d1a56b3	0.03768034
185	0x3e2c52d7	0.16828476
186	0xbc009135	-0.00784712
187	0xbdf8b23c	-0.121433705
188	0xbda080cc	-0.07837066
189	0x3cca3c15	0.024686852
190	0xbdf57357	-0.1198489
191	0xbe09726b	-0.13422553
192	0x3dfbe954	0.12300363
193	0x3e73ea92	0.2381995
194	0xbcfdead0	-0.030995756
195	0xbde3266b	-0.11091312
196	0xbb714de1	-0.00368201
197	0x3ca08d20	0.019598544
198	0x3dcb7189	0.099337645
199	0x3ca22f45	0.01979793
200	0xbe50033d	-0.20313735
201	0xbd462d9b	-0.048383337
202	0x3e823209	0.254288
203	0x3db740c1	0.08947898
204	0xbd3a2adb	-0.045451026
205	0xbddd2277	-0.10797589
206	0xbd948288	-0.07251459
207	0xbe049abc	-0.12949651
208	0xbdd59998	-0.10429686
209	0x3d869ef0	0.06573284
210	0x3e053660	0.13009024
211	0x3e105124	0.14093453
212	0xbe122345	-0.14271267
213	0xbe180a21	-0.14847614
214	0xbd26c924	-0.040719166
215	0x3e695d2f	0.22789453
216	0x3e57df54	0.21081287
217	0x3dba3b34	0.09093323
218	0x3dccaf7a	0.09994407
219	0x3d370a29	0.044687424
220	0xbe506523	-0.2035108
221	0x3cf5593e	0.02994978
222	0xbcf41bb0	-0.029798359
223	0xbd8a8f88	-0.06765658
224	0xbe6de0a0	-0.23230219
225	0x3e18c92d	0.14920492
226	0x3e6b090a	0.22952667
227	0x3df8e4a3	0.12152984
228	0xbe0c2ca6	-0.13688907
229	0xbe90cc43	-0.2828084
230	0xbe4b1003	-0.19830327
231	0x3de9bd6a	0.11413081
232	0x3d7bc7ee	0.061469965
233	0x3e3df000	0.18548584
234	0x3e1cccf5	0.1531256
235	0x3db9bd6e	0.09069334
236	0x3cf19aea	0.029492814
237	0xbd780ade	-0.06055724
238	0xbe886595	-0.2664
239	0xbe524a3f	-0.20536135
240	0x3e08a611	0.133446
241	0xbdbbd3c3	-0.0917125
242	0x3cf92264	0.030411907
243	0xbd0d6276	-0.034517728
244	0x3e1e02ad	0.15430708
245	0xbdc1c011	-0.09460462
246	0xbdeba3f2	-0.115058795
247	0x3e5d570c	0.21615237
248	0xbde08c70	-0.10964286
249	0x3d5dcd77	0.054151025
250	0x3d827975	0.06370822
251	0xbe017faf	-0.12646364
252	0xbc675624	-0.014119659
253	0x3d99c49e	0.07508205
254	0xbd44f280	-0.04808283
255	0xbe7a36ef	-0.24435018

features.0.bias f4 [32]
0	0xbe94daee	-0.2907328
1	0x3e1080d9	0.14111651
2	0x3e2096a3	0.15682463
3	0x3e35e15d	0.1776175
4	0x3cc221fc	0.023697846
5	0xbd9d8660	-0.076916456
6	0xbd164cbf	-0.036694285
7	0x3e870073	0.2636753
8	0x3e1a936f	0.15095304
9	0xbda0f0fa	-0.07858463
10	0xbcd01c4b	-0.025404116
11	0xbd18ef2b	-0.037337463
12	0x3dbe59b1	0.09294451
13	0x3d865838	0.06559795
14	0x3e16fbb6	0.14744458
15	0x3d49cb2e	0.049266033
16	0xbcae590e	-0.021282699
17	0x3b9ffdce	0.004882551
18	0xbd5f48e7	-0.054512884
19	0x3e5cbc7a	0.21556273
20	0x3dbf039b	0.093268596
21	0x3e74ffb8	0.23925674
22	0x3db50ee5	0.088407315
23	0x3d118697	0.035528746
24	0xbe115b06	-0.14194879
25	0x3e2ffc5d	0.17186113
26	0x3ded2792	0.11579813
27	0xbdfaa3f7	-0.12238305
28	0x3c2058cc	0.009786796
29	0x3dc4f6e0	0.096174
30	0x3dcb8aa5	0.09938554
31	0x3e1f0bdd	0.15531869

features.1.weight f4 [32]
0	0x3f67e403	0.90582293
1	0x3f615f26	0.8803581
2	0x3f6e0443	0.9297525
3	0x3f8bcc60	1.0921745
4	0x3f580886	0.84388006
5	0x3f55ee05	0.83566314
6	0x3f69815d	0.9121302
7	0x3f871410	1.0552998
8	0x3f87ee34	1.0619569
9	0x3fad891c	1.3557467
10	0x3f7c200d	0.98486406
11	0x3f3e6eef	0.7438802
12	0x3f6d4e28	0.9269738
13	0x3f8b6902	1.0891421
14	0x3f8aba16	1.0838039
15	0x3f6f4e56	0.93478906
16	0x3f903dbb	1.1268839
17	0x3f77cb3c	0.96794486
18	0x3f5e4909	0.8683019
19	0x3f89001d	1.070316
20	0x3f79c4af	0.9756574
21	0x3f88e0cf	1.0693606
22	0x3f87bd75	1.0604693
23	0x3f49b668	0.78793955
24	0x3f7b3f9c	0.98143935
25	0x3f611892	0.87928116
26	0x3f857c14	1.0428491
27	0x3f3893a0	0.7210026
28	0x3f93fc4e	1.1561372
29	0x3f638ea9	0.8888956
30	0x3f5378ed	0.82606393
31	0x3f4eac8c	0.80732036

features.1.bias f4 [32]
0	0xbd323c36	-0.043514453
1	0xbd470fc1	-0.04859901
2	0xbd69674c	-0.056983277
3	0xbe3cad1a	-0.18425408
4	0xbf0d16da	-0.55112994
5	0xbd3a9be4	-0.045558825
6	0x3d9d3afc	0.07677266
7	0xbd85e3ed	-0.06537614
8	0xbea0b6b4	-0.3138939
9	0xbe22adf3	-0.15886669
10	0xbec06065	-0.37573543
11	0xbcec6111	-0.028854879
12	0xbebe5eb8	-0.3718164
13	0x3d3f164f	0.046652135
14	0xbdd7e3f9	-0.10541529
15	0xbe4c2750	-0.19936872
16	0xbcf977aa	-0.030452568
17	0x3ce65914	0.028118648
18	0xbeb57b66	-0.35445708
19	0x3d8c2ded	0.06844697
20	0xbe65b912	-0.2243388
21	0xbe3c2628	-0.1837393
22	0xbd65882d	-0.05603807
23	0xbeda00a9	-0.4257863
24	0xbe840fb5	-0.25793234
25	0xbe181408	-0.14851391
26	0xbcd8034b	-0.026368758
27	0xbdfbeaca	-0.12300642
28	0xbc8367f2	-0.016040776
29	0x3d69339c	0.056933984
30	0xbe8e0971	-0.27741578
31	0xbe3a8445	-0.1821452

features.1.running_mean f4 [32]
0	0xbe99fc4e	-0.30075306
1	0x3e1421f6	0.1446608
2	0x3e1eb1b4	0.15497476
3	0x3e5c80e6	0.21533546
4	0x3e0993e0	0.13435316
5	0xbd914cdb	-0.07094737
6	0x3cdf9684	0.027293451
7	0x3e7354f3	0.23762874
8	0x3e4c9587	0.19978915
9	0xbdf871d6	-0.121310875
10	0x3de1ed68	0.1103161
11	0xbdf4937f	-0.11942195
12	0x3eb2815e	0.34864324
13	0x3d66acf9	0.056317303
14	0x3e1ab052	0.15106323
15	0x3deb31ba	0.11484094
16	0xbb9ff64b	-0.0048816553
17	0x3c66eb66	0.014094209
18	0xbe62c19c	-0.22144169
19	0x3e7d9785	0.24764831
20	0x3dccdd68	0.100031674
21	0x3e75a1ac	0.23987454
22	0x3d6c81c3	0.057740938
23	0x3eeca852	0.46222168
24	0xbe77d0fc	-0.24200815
25	0x3e1fb318	0.15595663
26	0x3daa327f	0.083104126
27	0xbdf5f3c2	-0.12009384
28	0x3cb54b0c	0.022130512
29	0x3ddeb26b	0.10873874
30	0x3e101f77	0.14074503
31	0x3e220b88	0.15824711

features.1.running_var f4 [32]
0	0x3f1567f4	0.58361745
1	0x3d69ebf5	0.05710979
2	0x3ea7d166	0.32776946
3	0x3e21197b	0.15732376
4	0x3ef50ee3	0.4786292
5	0x3edf3b0b	0.43599734
6	0x3ea815bd	0.32829085
7	0x3e42e078	0.1903094
8	0x3f4fbdd3	0.81149024
9	0x3ee2ddc3	0.44309816
10	0x3f03408c	0.51270366
11	0x3efa6003	0.48901376
12	0x4012e3de	2.295158
13	0x3e31fcdb	0.17381613
14	0x3d6f08b2	0.058357902
15	0x3e8cb30e	0.27480358
16	0x3ed72ede	0.42027944
17	0x3e3c704c	0.18402213
18	0x3fa847fc	1.3146968
19	0x3f26c0b9	0.6513782
20	0x3d7ee7af	0.06223267
21	0x3f9c3692	1.2204154
22	0x3ee19691	0.44060186
23	0x40621057	3.5322473
24	0x3ee96812	0.45587212
25	0x3e853556	0.26017255
26	0x3ec84175	0.3911244
27	0x3e9e1f22	0.30883127
28	0x3f456266	0.7710327
29	0x3ed104e1	0.40824035
30	0x3eebb522	0.4603663
31	0x3f85383a	1.0407784

features.4.weight f4 [64, 32, 3, 3]
0	0xbd9276a4	-0.07151535
1	0xbde1f042	-0.11032154
2	0xbd80d2d8	-0.06290215
3	0x3d086be6	0.033306025
4	0xbc247639	-0.010037952
5	0x3c0d3a19	0.008619809
6	0x3dfaa985	0.122393645
7	0x3cb422c7	0.02198924
8	0x3d0a91da	0.0338305
9	0x3cf67f89	0.03009011
10	0x3ce42cb6	0.027853351
11	0x39fceaf7	0.00048240248
12	0x3c599b18	0.013281606
13	0x3c963eb5	0.018340448
14	0xbda1de9d	-0.07903788
15	0xbd02a159	-0.031892154
16	0xbd4a2644	-0.0493529
17	0xbd4068e5	-0.046975035
18	0xbc8796ca	-0.016551394
19	0xbd05760e	-0.03258329
20	0x3c83ae1d	0.016074235
21	0x3c82a59f	0.015948115
22	0xbc6f5a52	-0.014608936
23	0x3d3ae98e	0.04563289
24	0xbe8bfe4c	-0.2734245
25	0xbe6bf35e	-0.23042056
26	0xbe1a3fe2	-0.15063432
27	0xbc5794a7	-0.013158
28	0x3d89d59f	0.06730198
29	0x3dd709bf	0.10499906
30	0x3d9ec155	0.07751719
31	0x3d4b7431	0.049671356
32	0xbdb69bcf	-0.08916437
33	0xbd833d1c	-0.0640814
34	0xbe07037e	-0.13184926
35	0xbde579d8	-0.112048805
36	0xbe0dd1dc	-0.13849586
37	0xbe3a1a2c	-0.18174046
38	0xbd898fa2	-0.06716849
39	0xbde1b15e	-0.11020158
40	0xbe0b7869	-0.13620152
41	0xbdc2788f	-0.09495651
42	0x3dd8bd85	0.10583023
43	0x3df166c2	0.117871776
44	0x3d7a2294	0.061068133
45	0xbd27c75a	-0.0409616
46	0x3d0fe68a	0.03513197
47	0xbc8da6ef	-0.017291514
48	0xbcf7e102	-0.03025866
49	0x3d42b3b1	0.04753465
50	0xbca8fe0f	-0.020628957
51	0xbc74124b	-0.0148969395
52	0x3d12c0fe	0.035828583
53	0x3dd838b8	0.10557693
54	0xbcbdf35f	-0.023187337
55	0x3dc1b5d9	0.09458513
56	0x3d6efe76	0.05834814
57	0x3cd02603	0.02540875
58	0x3c9c9d43	0.019117957
59	0xbe0a7124	-0.13519722
60	0xbd7a931e	-0.061175458
61	0x3c8fcad4	0.01755277
62	0x3d79db58	0.061000198
63	0xbcf1447e	-0.029451605
64	0xbbf36649	-0.007427965
65	0x3d10786d	0.035271097
66	0x3e16d6f3	0.14730434
67	0x3c4f5d19	0.012656474
68	0xbc646d89	-0.013942131
69	0x3d845953	0.0646235
70	0x3dc20a5e	0.09474634
71	0x3deb6535	0.11493913
72	0xbdc77e17	-0.097408466
73	0xbc171807	-0.009222037
74	0xbde24e1e	-0.11050056
75	0xbe131310	-0.1436274
76	0xbc7e3448	-0.0155153945
77	0xbd4fa218	-0.050691694
78	0xbcf1a76f	-0.029498784
79	0x3c96d401	0.018411638
80	0x3c43db23	0.011954102
81	0x3e54ff59	0.20800532
82	0x3e6638a9	0.22482552
83	0x3e050efa	0.12993994
84	0x3e4bcc83	0.19902234
85	0x3d972d3a	0.07381673
86	0x3dc84705	0.09779171
87	0xbe5a1993	-0.21298818
88	0xbeeaf446	-0.4588949
89	0xbe7aec13	-0.24504118
90	0xbdde147e	-0.10843752
91	0xbd9c1330	-0.07620847
92	0x3cab07f3	0.020877814
93	0xbe028b55	-0.12748463
94	0xbe32f048	-0.17474473
95	0xbdcf7c21	-0.101310976
96	0x3d9b9998	0.07597655
97	0xbc637c09	-0.013884553
98	0x3da61e00	0.08111191
99	0x3d50a30e	0.05093675
100	0x3dfdf0b8	0.12399429
101	0x3d426d6e	0.04746764
102	0xbd28fb84	-0.04125549
103	0xbddc60ff	-0.10760688
104	0xbd714b20	-0.058909535
105	0xbe293361	-0.16523506
106	0xbe66f4c8	-0.22554314
107	0xbe35146e	-0.17683575
108	0xbe228cab	-0.15873973
109	0xbe151db4	-0.14562112
110	0xbe166002	-0.14685062
111	0xbd3b8896	-0.045784555
112	0xbc8000c3	-0.015625363
113	0xbd152dc3	-0.036420595
114	0x3e1159ea	0.14194456
115	0x3dae76a2	0.08518721
116	0x3d0845bb	0.033269625
117	0x3cce3d24	0.025175638
118	0x3e1eb484	0.15498549
119	0x3e42b4d2	0.1901429
120	0xbd268458	-0.040653557
121	0x3cb85078	0.022499308
122	0x3d86977c	0.06571862
123	0xbd2295ff	-0.03969383
124	0xbe521b08	-0.20518124
125	0xbe36e070	-0.17859054
126	0x3d8b4c6e	0.06801687
127	0xbc2389b2	-0.00998156
128	0x3d91c282	0.071171775
129	0xbc99e800	-0.018787384
130	0x3d1b808e	0.037964396
131	0x3c399781	0.011327625
132	0xbdcf387b	-0.10118195
133	0xbe26b49b	-0.16279833
134	0xbcef89f1	-0.02924058
135	0xbc813887	-0.015774025
136	0x3da76cb1	0.08175028
137	0x3bc0b820	0.0058813244
138	0xbdeb9604	-0.115032226
139	0x3d417e90	0.04723984
140	0x3daad8e1	0.083421476
141	0xbe04a6b3	-0.12954216
142	0xbd897665	-0.06712035
143	0xbd9211a3	-0.0713227
144	0x3d2a6dc7	0.041608598
145	0x3d9ffa4e	0.07811414
146	0x3da0935f	0.07840609
147	0x3db720b7	0.08941787
148	0xbd1c3f9b	-0.038146596
149	0xbe10da62	-0.14145806
150	0xbe3b8d83	-0.18315701
151	0xbe2420b7	-0.16028105
152	0xbe088f5f	-0.13335942
153	0xbd916684	-0.070996314
154	0x3c82a7e2	0.015949193
155	0x3a5d0725	0.00084315456
156	0xbdfd0b5e	-0.12355684
157	0xbd46d7f8	-0.048545808
158	0xbb94fe60	-0.0045469254
159	0x3d97d3fd	0.074134804
160	0x3dafe9cd	0.08589516
161	0x3d8bcb51	0.06825889
162	0xbe08bc19	-0.13353004
163	0xbd9407f3	-0.07228079
164	0xbd203a54	-0.039118126
165	0xbdbfc3a6	-0.09363489
166	0xbd7e0290	-0.062014163
167	0x3d3f82c8	0.046755582
168	0xbcdf9794	-0.027293958
169	0xbbf4e5d7	-0.007473688
170	0xbd147968	-0.036248595
171	0x3db6f506	0.08933453
172	0x3d69dd50	0.057095826
173	0x3e0046cd	0.12527008
174	0x3db91ae8	0.09038335
175	0x3d4c133c	0.04982303
176	0x3dd4d1dd	0.10391591
177	0xbd8e0f46	-0.06936507
178	0xbe74a1a9	-0.23889793
179	0xbd8d5ce6	-0.069024846
180	0xbb085d6f	-0.0020807644
181	0x3cb3ae91	0.021933826
182	0x3cb241ea	0.021759946
183	0xbd4ee888	-0.050514728
184	0xbd454b03	-0.04816724
185	0xbd67ffbc	-0.05664037
186	0x3c9f936c	0.019479476
187	0xbbdbf63e	-0.006712704
188	0x3d80ae0f	0.06283199
189	0xbd490438	-0.04907629
190	0xbbea9b21	-0.007159606
191	0x3c39428b	0.011307369
192	0xbd36b8ba	-0.044609763
193	0x3caec815	0.02133564
194	0x3d1bf1b2	0.038072295
195	0x3de7f4c7	0.113259844
196	0x3deb7a54	0.114979416
197	0x3dfa8ee2	0.12234284
198	0x3e04e683	0.12978558
199	0x3e68adac	0.227225
200	0x3dc2bb08	0.0950833
201	0xbd2eaab0	-0.04264325
202	0x3c8414ee	0.016123261
203	0x3da2ba77	0.079457216
204	0xbe4b74d4	-0.19868785
205	0xbe5344a8	-0.20631659
206	0xbe76538b	-0.24055307
207	0x3c414f84	0.011798743
208	0xbda77e1c	-0.0817835
209	0xbd4b9686	-0.049704097
210	0xbd1118bf	-0.03542399
211	0xbd8814ba	-0.06644578
212	0xbe26f73b	-0.16305248
213	0x3d9febb5	0.078086294
214	0x3bc929d4	0.0061390195
215	0xbd442f69	-0.047896776
216	0xbcee4ade	-0.029088434
217	0x3baa5b02	0.0051988373
218	0xbd802572	-0.06257142
219	0xbdb1a65a	-0.08674307
220	0xbd7641fc	-0.06012152
221	0x3d281cdb	0.041043144
222	0xbc1e0e12	-0.009646909
223	0xbc4a1ee9	-0.012336471
224	0x3afd40ca	0.0019321677
225	0x3bcdc619	0.0062797186
226	0x3dd32300	0.1030941
227	0x3c9edecb	0.019393345
228	0x3c314e0a	0.010821829
229	0xbda39236	-0.07986872
230	0xbd039691	-0.032126013
231	0xbbe880be	-0.0070954254
232	0xbd024b3d	-0.031810034
233	0xbd4db1b1	-0.050218288
234	0xbe455aca	-0.19272915
235	0x3d802827	0.062576585
236	0xbcbb266e	-0.022845473
237	0xbdce9aa3	-0.10088088
238	0x3daf233e	0.08551644
239	0x3d5d3b43	0.054011595
240	0xbd719ca1	-0.058987264
241	0x3dfc8335	0.12329713
242	0x3da85e6a	0.08221133
243	0xbce4f5ce	-0.02794924
244	0x3d383c64	0.044979468
245	0x3c863a2c	0.01638516
246	0xbd8d521a	-0.06900425
247	0xbe0b0808	-0.13577282
248	0xbdd8ed00	-0.10592079
249	0x3b995b76	0.0046800924
250	0xbc7ce7ec	-0.015436154
251	0xbd13944b	-0.036030095
252	0x3e408259	0.18799724
253	0x3e0a89b7	0.13529097
254	0x3d354149	0.044251714
255	0x3d9bbb1a	0.07604046

features.4.bias f4 [64]
0	0xbe3d7de9	-0.18505062
1	0xbdbf2158	-0.09332532
2	0xbd559dea	-0.05215255
3	0xbd1ce9fa	-0.038309075
4	0xbdeda822	-0.116043344
5	0xbca65bfa	-0.02030753
6	0xbd511082	-0.051041134
7	0x3d6ee472	0.05832333
8	0x3e6af329	0.2294432
9	0xbdc0da48	-0.09416634
10	0xbd047d8e	-0.0323463
11	0x3b7b86d3	0.0038379922
12	0x3e06898d	0.13138409
13	0xbcebe1ac	-0.028794132
14	0xbb6538ce	-0.0034976485
15	0xbde12ee8	-0.10995275
16	0x3d980110	0.07422078
17	0xbd89f58f	-0.0673629
18	0xbbc42906	-0.0059863357
19	0xbd5cd8ea	-0.053917803
20	0x3d539e8d	0.051664878
21	0xbadf51f7	-0.0017037977
22	0xbc768ab0	-0.015047714
23	0x3d171db4	0.03689356
24	0xbcf76264	-0.030198283
25	0xbbaeac22	-0.0053305784
26	0x3e48972b	0.19588916
27	0x3c013f27	0.007888592
28	0x3d87ba61	0.06627346
29	0x3d8fbea8	0.07018787
30	0xbd3b2f74	-0.04569955
31	0x3d42e1d5	0.04757865
32	0xbd14c70e	-0.036322646
33	0xbb8e5b70	-0.0043443963
34	0x3ce1b44a	0.027551789
35	0x3dc527b1	0.09626711
36	0x3e049e0f	0.1295092
37	0x3cdbd762	0.026836101
38	0x3d7e5976	0.062097035
39	0xbd5e3c72	-0.054256864
40	0x3d5cfe9c	0.053953752
41	0xbda02989	-0.07820422
42	0xbdb68d07	-0.089136176
43	0x3c0a17d1	0.00842853
44	0xbddaeed9	-0.10690088
45	0xbd8fc81f	-0.07020592
46	0x3d4d0818	0.050056547
47	0x3d540323	0.051760804
48	0xbe2d2273	-0.16907673
49	0xbc4cfc8b	-0.012511383
50	0x3ceedec7	0.029158963
51	0x3da6c199	0.081423946
52	0x3d0e7cd6	0.03478702
53	0xbd0a3222	-0.033739217
54	0xbb440ac9	-0.0029913655
55	0x3e1dabcd	0.15397568
56	0x3c1a82a3	0.00943056
57	0x3de6a371	0.11261643
58	0x3db7e49d	0.089791514
59	0x3d66e11b	0.05636702
60	0x3a219ac4	0.00061647245
61	0x3dde0e9b	0.108426295
62	0xbdef9b27	-0.11699515
63	0xbdb309d9	-0.08742113

features.5.weight f4 [64]
0	0x3f76a585	0.9634631
1	0x3f3ea25e	0.744665
2	0x3f950f97	1.1645383
3	0x3f87c3c7	1.0606622
4	0x3f5463db	0.8296487
5	0x3f6b2245	0.91849166
6	0x3f8a6956	1.0813396
7	0x3f4dcf7e	0.8039473
8	0x3f8c3d46	1.0956199
9	0x3f70a65a	0.9400383
10	0x3f4eb266	0.80740964
11	0x3f4313a2	0.7620183
12	0x3f877bf2	1.05847
13	0x3f362371	0.7114783
14	0x3f529ed9	0.8227363
15	0x3f3de06e	0.7417058
16	0x3f99613c	1.1982799
17	0x3f77cafb	0.967941
18	0x3f70f478	0.9412303
19	0x3f3f106a	0.7463442
20	0x3f4f9d79	0.8109966
21	0x3f8f12da	1.1177628
22	0x3f6b54e5	0.91926414
23	0x3f66a0b2	0.9008895
24	0x3f57fe54	0.8437245
25	0x3f671bf7	0.90277046
26	0x3f653911	0.895402
27	0x3f651084	0.89478326
28	0x3f2cee3b	0.6755101
29	0x3f4288a8	0.7598977
30	0x3f509b5d	0.81487066
31	0x3f5f6ef2	0.87278664
32	0x3f3f4b6d	0.74724466
33	0x3f684033	0.9072296
34	0x3f905929	1.127721
35	0x3f62d460	0.8860531
36	0x3f5ec1f7	0.87014717
37	0x3f7a40a8	0.9775491
38	0x3f877ca6	1.0584915
39	0x3f70dd71	0.9408789
40	0x3f6834db	0.9070565
41	0x3f4bfed7	0.7968573
42	0x3f4368d5	0.76331836
43	0x3f67b442	0.90509427
44	0x3f5914c7	0.8479733
45	0x3f4a4c8d	0.7902306
46	0x3f5ee2c9	0.87064797
47	0x3f545b70	0.8295202
48	0x3f475c4a	0.77875197
49	0x3f5d38ec	0.8641498
50	0x3f8db5ba	1.1071084
51	0x3f85335f	1.0406302
52	0x3f52bd40	0.8232002
53	0x3f5a8f66	0.8537506
54	0x3f85fac8	1.0467157
55	0x3f60c108	0.8779454
56	0x3f45544b	0.77081746
57	0x3f882de7	1.0639008
58	0x3f5a1e18	0.8520217
59	0x3f6c393c	0.9227483
60	0x3f653aaf	0.8954267
61	0x3f36e138	0.71437407
62	0x3f634873	0.88782424
63	0x3f66f59d	0.90218526

features.5.bias f4 [64]
0	0xbf0f924b	-0.560826
1	0xbf068b6e	-0.525565
2	0xbed2f8d4	-0.41205466
3	0xbefa3b2a	-0.48873264
4	0xbe741589	-0.2383634
5	0xbedc02e4	-0.42970955
6	0xbf1d97dd	-0.6155985
7	0xbeecec6b	-0.46274123
8	0xbf1e3609	-0.618012
9	0xbeb4918b	-0.3526729
10	0xbf0c8764	-0.5489409
11	0xbeed5de1	-0.46360686
12	0xbf085627	-0.5325646
13	0xbebde6a2	-0.3709002
14	0xbeecf9ec	-0.46284425
15	0xbec8188c	-0.39081228
16	0xbeeff333	-0.46865234
17	0xbf00798d	-0.5018547
18	0xbf0db614	-0.55355954
19	0xbef6cf35	-0.4820496
20	0xbed26490	-0.41092348
21	0xbf230c78	-0.636909
22	0xbf032cff	-0.51240534
23	0xbf0e82bd	-0.5566824
24	0xbf1065d9	-0.5640541
25	0xbef24f53	-0.47326145
26	0xbe9a9acc	-0.30196226
27	0xbe782b2b	-0.24235217
28	0xbf06eb60	-0.52702904
29	0xbef184f7	-0.47171757
30	0xbec9b582	-0.39396292
31	0xbf1d0878	-0.6134105
32	0xbedfe062	-0.43725878
33	0xbeb36751	-0.35039762
34	0xbf233092	-0.6374599
35	0xbeed4b1e	-0.46346372
36	0xbf09efd9	-0.53881603
37	0xbed81cd5	-0.42209497
38	0xbf03592e	-0.5130795
39	0xbeeaa57f	-0.45829388
40	0xbf1ab2e4	-0.60429215
41	0xbeebf9bf	-0.4608898
42	0xbea63a94	-0.32466567
43	0xbf2ed903	-0.68299884
44	0xbf15932a	-0.5842768
45	0xbee913d4	-0.4552294
46	0xbf31cd46	-0.6945385
47	0xbf1a3c2e	-0.60248077
48	0xbefe450e	-0.4966206
49	0xbef21892	-0.4728437
50	0xbf0bf0a7	-0.5466408
51	0xbf203bd0	-0.62591267
52	0xbf0db1a0	-0.5534916
53	0xbecc86f5	-0.39946714
54	0xbefca3d3	-0.49343738
55	0xbf280d3d	-0.656452
56	0xbeba3567	-0.36368868
57	0xbed5226f	-0.41627833
58	0xbf00f7c0	-0.50378036
59	0xbf02e03f	-0.5112342
60	0xbe754c5f	-0.23954915
61	0xbee266ff	-0.44219205
62	0xbf3728c2	-0.71546566
63	0xbf1f1231	-0.6213713

features.5.running_mean f4 [64]
0	0xbfb6b674	-1.427443
1	0xbf83e317	-1.0303677
2	0xbff9454e	-1.9474275
3	0xc02aedbb	-2.67076
4	0xbfb893f5	-1.4420153
5	0xc0002705	-2.0023816
6	0xbfbaa806	-1.4582527
7	0x3e34a900	0.17642593
8	0xc0276e2b	-2.616099
9	0xc021ee3b	-2.5301654
10	0xbf2cddf6	-0.67526186
11	0xbf553975	-0.832908
12	0xc0240fbd	-2.5634606
13	0x3f5d0928	0.86342096
14	0xbf95d4ca	-1.1705563
15	0xbf9a4312	-1.2051718
16	0xbf4ec0ef	-0.80763143
17	0xbfc80480	-1.5626373
18	0xc0444eec	-3.067317
19	0x3e5680b4	0.20947534
20	0x3a6ab1bc	0.0008952876
21	0xbf9e3413	-1.2359642
22	0xbfcf821a	-1.6211579
23	0xbfe26a46	-1.7688682
24	0xbf83a9ac	-1.0286155
25	0xbfaac802	-1.3342288
26	0xbfe78b64	-1.8089414
27	0xbff50fc3	-1.9145435
28	0x3c94499f	0.018101512
29	0xbf8359a4	-1.0261731
30	0xbfc6d74d	-1.5534455
31	0xbfb58265	-1.4180418
32	0xbfbbabc4	-1.4661794
33	0xbf9574fd	-1.1676327
34	0xc08034dc	-4.0064526
35	0xbfe99cdb	-1.8250993
36	0xbffa4fa6	-1.9555557
37	0xc023c2cb	-2.5587642
38	0xc006658b	-2.0999477
39	0xc0238464	-2.5549555
40	0xc036bcef	-2.8552816
41	0xbf76ad33	-0.9635803
42	0xbfd0fba4	-1.6326795
43	0xbfa74ba0	-1.3069954
44	0xbfe1d5e6	-1.7643402
45	0x405a534d	3.4113343
46	0xbfa733f4	-1.306273
47	0xbf6d2b27	-0.9264397
48	0xbfd8f23a	-1.6948922
49	0xbf2f81f2	-0.68557656
50	0xbfd2c7f9	-1.6467277
51	0xbf74e859	-0.95667034
52	0xc003cd5f	-2.0594099
53	0xbfabedcc	-1.3431945
54	0xc0343175	-2.8155186
55	0xbea05e52	-0.3132196
56	0xbec7c4cd	-0.39017335
57	0xc03d42d7	-2.9572046
58	0xc0265d08	-2.5994282
59	0xc007cbfb	-2.121825
60	0xbffa478c	-1.9553084
61	0x3f1e2cb9	0.6178699
62	0xbfdd365b	-1.7282213
63	0xbfcd6cac	-1.6048789

features.5.running_var f4 [64]
0	0x4016be24	2.3553553
1	0x3ff61019	1.9223663
2	0x411c0d0f	9.753188
3	0x40ada5f0	5.426506
4	0x4041e64c	3.0296812
5	0x407217ba	3.7826982
6	0x402a3a64	2.659814
7	0x3fd07598	1.6285887
8	0x4113b1a8	9.230873
9	0x405e1213	3.4698532
10	0x4053f5e7	3.3118837
11	0x40597a6f	3.3980978
12	0x40f104e7	7.5318484
13	0x406e435d	3.7228615
14	0x406fdd6e	3.74789
15	0x40335e0c	2.8026152
16	0x40093519	2.1438658
17	0x403a59af	2.9117239
18	0x41196c15	9.588887
19	0x4016008b	2.3437831
20	0x3feb098a	1.8362286
21	0x40b9dfe9	5.808583
22	0x4086fe2a	4.218526
23	0x401490ad	2.3213303
24	0x4006cf78	2.106413
25	0x40106d81	2.2566836
26	0x40bd4bd5	5.915507
27	0x40985bf6	4.7612257
28	0x40456c81	3.0847476
29	0x4042926e	3.0401874
30	0x40880831	4.251
31	0x4085d7ca	4.1825914
32	0x405e75cd	3.47594
33	0x401d24e6	2.455377
34	0x4120be3c	10.046444
35	0x402c59f2	2.6929898
36	0x408b7b87	4.358829
37	0x409d234d	4.910559
38	0x40a2da2b	5.089132
39	0x4085ab3c	4.1771526
40	0x409440a1	4.6328893
41	0x4050fda3	3.2654808
42	0x4083417e	4.1017447
43	0x40280e6b	2.62588
44	0x4062f6b4	3.5463076
45	0x40bd89a7	5.9230533
46	0x3fe63d4a	1.7987454
47	0x3fdb9563	1.7154964
48	0x4040971b	3.0092227
49	0x404c64ca	3.1936517
50	0x4088a12b	4.269674
51	0x401d2d5f	2.4558942
52	0x40ad7146	5.4200773
53	0x405e93ec	3.4777784
54	0x40e8a5de	7.2702475
55	0x3fe2bd73	1.7714065
56	0x40679e87	3.6190507
57	0x40f32e1d	7.599379
58	0x40923c60	4.56987
59	0x40980b56	4.751384
60	0x4092b00d	4.5839906
61	0x40493e59	3.1444304
62	0x40209a7a	2.5094285
63	0x3fba69ad	1.45635

features.8.weight f4 [128, 64, 3, 3]
0	0xbe186b4e	-0.14884683
1	0xbdd84c18	-0.10561389
2	0xbe6c11b7	-0.23053633
3	0xbdeb2666	-0.11481933
4	0x3d8d38c0	0.0689559
5	0xbe06745a	-0.13130322
6	0xbd828595	-0.06373135
7	0x3d53cff9	0.05171201
8	0x3db25df0	0.087093234
9	0xbdf01eaf	-0.117246024
10	0xbe03fe3b	-0.1288995
11	0x3c5d5789	0.01350964
12	0xbe31e640	-0.1737299
13	0xbd62248a	-0.055210628
14	0x3db091e7	0.08621579
15	0xbe319a3d	-0.17343993
16	0x3d5dd8cd	0.054161835
17	0x3ab20b72	0.0013583733
18	0x3b843c82	0.0040355334
19	0x3c3cf6a8	0.011533417
20	0xbd334222	-0.04376424
21	0xbd4b88b1	-0.049690906
22	0xbd3db08a	-0.04631094
23	0xbd90d4ff	-0.07071876
24	0x3cc518ad	0.024059618
25	0x3e0aee36	0.13567433
26	0xbd2fc291	-0.042910162
27	0x3c0e4d3f	0.008685409
28	0x3dea9c8b	0.114556395
29	0x3d9ed212	0.077549115
30	0x3d9a7a23	0.07542827
31	0x3e111ce0	0.14171171
32	0x3d0200ea	0.031739153
33	0x3e115e1e	0.14196059
34	0x3e13fa81	0.14451028
35	0xbcbf7a40	-0.023373723
36	0xbd945b9c	-0.072440356
37	0x3d0f6289	0.03500608
38	0x3d474172	0.048646398
39	0xbc4332df	-0.011913984
40	0xbd812f56	-0.06307857
41	0x3d932b7f	0.071860306
42	0x3dc55e1d	0.09637091
43	0xbcd46156	-0.02592532
44	0x3dd2b960	0.10289264
45	0xbda71764	-0.08158758
46	0x3da2f342	0.07956554
47	0xbd02c3c4	-0.031924978
48	0xbda2f2e6	-0.079564855
49	0x3deeeaee	0.11665903
50	0x3e2dae8d	0.16961117
51	0xbe10cfcd	-0.1414177
52	0xbdffa519	-0.12482662
53	0x3df8a0e1	0.1214006
54	0xbd4b349c	-0.04961072
55	0x3cc1ad9e	0.023642357
56	0x3d4482a1	0.04797614
57	0x3d810dfb	0.06301495
58	0x3d72ac68	0.05924645
59	0x3c56b2fe	0.0131041985
60	0x3a8656f1	0.0010249299
61	0xbd0b380a	-0.03398899
62	0x3c03cb7f	0.008044123
63	0xbe112fbc	-0.14178365
64	0xbd9629f1	-0.073322184
65	0xbcdc93f9	-0.026926028
66	0xbdfcf1ae	-0.12350784
67	0xbe0e8a33	-0.13919906
68	0x3bb1338d	0.0054077567
69	0xbdcc6f59	-0.099821754
70	0xbd08f5a2	-0.03343738
71	0xbdd39adc	-0.103322715
72	0xbe036546	-0.12831602
73	0xbc832bf9	-0.016012179
74	0xb9615f5f	-0.000214932
75	0xbdab542b	-0.08365663
76	0xbbccb5a8	-0.006247241
77	0x3dfad6e5	0.12248019
78	0x3c388fee	0.011264784
79	0xbd12be47	-0.035825994
80	0x3e0b028d	0.13575192
81	0x3dbeaa2a	0.093098
82	0x3dbf689a	0.09346123
83	0x3daaa80f	0.08332836
84	0x3d4ad05a	0.049515106
85	0x3b7be68d	0.003843698
86	0xbac4b45c	-0.0015007365
87	0xbb79de94	-0.0038127052
88	0xbc83e308	-0.016099468
89	0x3d46c396	0.04852637
90	0x3cfc06e1	0.030764999
91	0x3d9ddbd1	0.07707942
92	0x3d4d9d13	0.050198626
93	0x3d45f3e1	0.048328284
94	0x3cf340eb	0.029694041
95	0x3e23c83f	0.15994357
96	0x3dc8487f	0.097794525
97	0x3ca57b0f	0.02020028
98	0xbcf7818c	-0.03021314
99	0xbdd66f54	-0.10470453
100	0x3c99aba6	0.018758606
101	0xbdba6c9d	-0.091027476
102	0xbd9e4b2b	-0.07729181
103	0xbd950685	-0.07276634
104	0xbe0228a7	-0.1271082
105	0xbe112434	-0.14173967
106	0xbdd6e87f	-0.10493564
107	0xbde1baca	-0.11021955
108	0x3d20f7fe	0.039299004
109	0x3d836727	0.06416159
110	0x3dd17ca0	0.102288485
111	0x3db188bc	0.08668658
112	0x3d02ac24	0.031902447
113	0x3da40224	0.08008221
114	0x3d34d757	0.044150677
115	0xbda64ec1	-0.0812049
116	0xbd17f3b6	-0.037097655
117	0xbdaecdc6	-0.08535342
118	0xbdaf9651	-0.085735925
119	0xbdd5aebd	-0.10433719
120	0xbe063a34	-0.1310814
121	0xbe13d358	-0.1443609
122	0x39644b91	0.00021771925
123	0x3d0360eb	0.03207485
124	0x3d82e916	0.06392114
125	0x3d618cbc	0.055065855
126	0xbcdb193f	-0.026745437
127	0xbb8f02e5	-0.0043643587
128	0x3c8e17fc	0.017345421
129	0xbdc53621	-0.09629465
130	0xbc1fbd83	-0.009749773
131	0x3d8e94c1	0.06961966
132	0x3ccdd3d4	0.025125422
133	0xbb086f40	-0.0020818263
134	0x3dcfba39	0.10142941
135	0x3d6ce998	0.05783996
136	0xbda1dc75	-0.07903377
137	0xbdb3acac	-0.08773169
138	0xbc8806dd	-0.016604835
139	0xbdf3e272	-0.119084254
140	0x3befd91b	0.007319582
141	0xbe0b533a	-0.13605967
142	0xbcb47221	-0.022027077
143	0x3d6aff88	0.0573726
144	0xbd800e94	-0.062527806
145	0x3d46964e	0.048483185
146	0x3dc5b0dd	0.096528746
147	0x3d4dc522	0.05023683
148	0x3db694de	0.08915113
149	0x3e00ab2e	0.125653
150	0x3cf75f25	0.030196736
151	0xbc813784	-0.015773542
152	0x3d5a2a3c	0.053262934
153	0xbd5be223	-0.053682458
154	0x3d8947df	0.067031614
155	0xbb5ebd95	-0.0033987511
156	0x3d43bdfb	0.0477886
157	0x3e0507b4	0.1299122
158	0x3dbcbed3	0.09216084
159	0xbd9a23d4	-0.07526365
160	0x3d88035c	0.06641266
161	0x3d0456c9	0.032309327
162	0x3e01a554	0.12660724
163	0x3db1d719	0.08683605
164	0x3da3af8b	0.079924665
165	0x3e0f2a4a	0.13980976
166	0x3de3d2d8	0.111242
167	0x3e097299	0.13422622
168	0xbace0296	-0.0015717323
169	0x3dc6b916	0.09703271
170	0x3d326eb1	0.043562595
171	0xbd2bb3e5	-0.041919608
172	0x3d259239	0.040422652
173	0xbdb06435	-0.08612863
174	0xbe06937c	-0.13142198
175	0xbc87dbf2	-0.01658437
176	0xbd3e1710	-0.046408713
177	0xbd976d33	-0.07393875
178	0xbe02c85c	-0.12771744
179	0xbdece3b6	-0.1156687
180	0xbe16e8ab	-0.14737193
181	0xbce68e00	-0.028143883
182	0xbd15db05	-0.036585826
183	0xbd918078	-0.071045816
184	0x3d39e5fc	0.045385346
185	0x3dcdb28c	0.10043821
186	0xbdc37175	-0.095431246
187	0xbca4fcf4	-0.020140149
188	0x3d0179bc	0.031610236
189	0x3d7abc13	0.061214518
190	0x3df92083	0.12164404
191	0x3ced7a03	0.028988844
192	0x3e253201	0.16132356
193	0x3e76ce89	0.24102224
194	0x3e1ca116	0.15295824
195	0x3c1eab8a	0.009684453
196	0x3cefdc98	0.029279992
197	0x3d0571a7	0.03257909
198	0xbd7e0cb3	-0.06202383
199	0xbd914fbb	-0.070952855
200	0x3dabcaba	0.083882764
201	0xbd2d0bc0	-0.042247534
202	0x3b01f705	0.0019831073
203	0x3d9ca5ab	0.07648786
204	0x3c9e14d7	0.019297047
205	0x3d3dce14	0.04633911
206	0x3da415f8	0.08012003
207	0x3d3e9200	0.046525955
208	0x3d07073f	0.032965895
209	0xbe0a1757	-0.13485466
210	0x3e25efa7	0.16204701
211	0x3df856e0	0.12125945
212	0xbc3ae0c9	-0.011406132
213	0x3d623cf6	0.055233918
214	0x3d94273e	0.07234047
215	0xbe03c8a7	-0.12869512
216	0x3c970f8c	0.01844003
217	0x3d92400a	0.07141121
218	0xbd63e5f1	-0.05563921
219	0x3d9875af	0.07444321
220	0x3e0e39c6	0.13889226
221	0x3c7e883b	0.01553541
222	0x3db364f8	0.08759493
223	0x3dc16f00	0.09445
224	0x3c6a3a7c	0.01429617
225	0xba6cacad	-0.0009028416
226	0x3d25d8a9	0.040489826
227	0xbdc63ee4	-0.09679964
228	0x3e0b619f	0.13611458
229	0x3dcf45b0	0.10120714
230	0xbdc0c981	-0.09413434
231	0xbd473fa7	-0.048644688
232	0xbde202f5	-0.1103572
233	0xbe437f4b	-0.19091527
234	0x3dd316f2	0.10307111
235	0x3c1f51de	0.0097241085
236	0xbd26fdca	-0.040769376
237	0x3dc6aa8b	0.09700497
238	0xbd85307b	-0.065033875
239	0xbdbadda9	-0.091243096
240	0x3d9ccdd0	0.07656443
241	0xbce1b016	-0.027549785
242	0xbe138ff1	-0.14410378
243	0x3cf6e78d	0.030139709
244	0x3d418102	0.047242172
245	0x3c061d2d	0.008185667
246	0x3d7cff93	0.061767172
247	0x3da07d9d	0.07836459
248	0x3cc16185	0.023606071
249	0xbcffc729	-0.031222897
250	0x3cd149bf	0.02554786
251	0x3d5a2c37	0.053264823
252	0x3d6133cd	0.05498104
253	0x3daefbd4	0.08544126
254	0x3da3dd45	0.08001188
255	0xbdc74518	-0.097299755

features.8.bias f4 [128]
0	0x3d20726c	0.03917162
1	0xbd638d22	-0.055554517
2	0xbc77ecb0	-0.015132114
3	0xbc8d0c50	-0.017217785
4	0xbb6db032	-0.003626835
5	0x3d52e24a	0.051485337
6	0xbcc8685c	-0.024463825
7	0xbcda87cc	-0.026676081
8	0xbcc01dfc	-0.023451798
9	0x3c09c7a2	0.008409413
10	0x3c9ac010	0.01889041
11	0xbd97286d	-0.073807575
12	0x3d333866	0.043754958
13	0x3ca17d8f	0.019713191
14	0x3cdaf8bb	0.026729932
15	0x3c1efad5	0.009703358
16	0xbd679b44	-0.056544557
17	0xbca63221	-0.020287575
18	0x3bf3ab1b	0.007436169
19	0xb9e46645	-0.00043563746
20	0x3c33717e	0.010952352
21	0x3cb75a41	0.022381904
22	0x3d2a73b9	0.041614268
23	0xbc115051	-0.008869247
24	0x3d8ecb8c	0.06972417
25	0xbd10e9b2	-0.03537912
26	0x3c9f9f6b	0.019485196
27	0x3d0ab90c	0.03386788
28	0xbcdc8bd4	-0.026922144
29	0x3d2d23c3	0.042270433
30	0xbcc1d421	-0.023660721
31	0xbc81b9bd	-0.015835637
32	0x3dba022d	0.09082446
33	0xbb8fc59e	-0.0043875715
34	0xbc8b10f5	-0.01697586
35	0x3d00fd6e	0.03149169
36	0x3d535de6	0.05160322
37	0x3bacae71	0.0052698185
38	0xbd655c8b	-0.05599646
39	0x3d7d2a3d	0.06180786
40	0xbcbaad7b	-0.0227878
41	0x3cb0e183	0.021591907
42	0x3c468806	0.012117391
43	0x3c2bbcc1	0.010482014
44	0xbd36ec15	-0.04465874
45	0x3d0eb2e1	0.03483856
46	0xbcd89436	-0.02643786
47	0xbd03f079	-0.032211754
48	0x3d2e13b7	0.04249927
49	0xbc314e94	-0.010821957
50	0x3c5b3d7a	0.013381356
51	0x3c85a4cd	0.016313935
52	0xbbb1fba8	-0.005431611
53	0x3d00ca0f	0.031442698
54	0x3d15e0a8	0.036591202
55	0x3d2d45ea	0.042303003
56	0xbc699ed0	-0.014259055
57	0x3c80ca8b	0.01572158
58	0x3c11d13a	0.008899981
59	0xbdd6631e	-0.10468124
60	0xbc26c116	-0.010177871
61	0xbcb6a63e	-0.022296067
62	0xbcb315f7	-0.02186106
63	0xbd40b701	-0.047049526
64	0xbdab204a	-0.08355768
65	0xbb566498	-0.0032713767
66	0xbc8c9801	-0.017162325
67	0xbd9eb59f	-0.07749485
68	0x3d48bc59	0.049007747
69	0x3976486a	0.00023487365
70	0x3d5cbadc	0.05388914
71	0xbacfad8a	-0.0015844565
72	0xbc71c7f2	-0.014757143
73	0xbd23b0e0	-0.039963603
74	0xbda24e64	-0.07925108
75	0xbd4d9a27	-0.05019584
76	0x399cde6f	0.00029920365
77	0x3c0e4172	0.008682596
78	0x3d2ccd51	0.042187992
79	0x3d336d81	0.043805603
80	0x3b14224f	0.0022603457
81	0xbdcc3349	-0.09970719
82	0x3c8623a5	0.016374419
83	0xbd7d0bea	-0.06177894
84	0x3d172552	0.036900826
85	0x3c2ccf58	0.0105474815
86	0x3bc65f14	0.0060538147
87	0x3d606c0a	0.054790534
88	0x3bafc450	0.0053639784
89	0x3c7902ef	0.015198453
90	0x3c5ed95e	0.013601629
91	0x3ceecc27	0.029150082
92	0x3d7f72cf	0.06236535
93	0x3d035eef	0.032072958
94	0x3cd58ff2	0.026069615
95	0x3d35921d	0.044328798
96	0x3d18d9ac	0.037316963
97	0xbc02964f	-0.007970407
98	0xbb46b9f5	-0.0030323241
99	0x3d0db260	0.03459394
100	0xbc9a832f	-0.018861381
101	0x3d221ca2	0.039578088
102	0xbb947e71	-0.0045316746
103	0xbc74deb3	-0.014945674
104	0x3c6b233e	0.014351664
105	0xbcf2eba3	-0.029653376
106	0xbd84d0ed	-0.06485162
107	0xbd0ac147	-0.03387573
108	0xbbb8b62e	-0.005636952
109	0xbbdd2d1a	-0.0067497613
110	0x3d99dcd8	0.07512826
111	0x3c4353ac	0.011921804
112	0x3d2d83c0	0.042361975
113	0xbd30842e	-0.043094806
114	0x3da2c09d	0.07946894
115	0x3ae53afc	0.0017488892
116	0xbc570994	-0.013124842
117	0xbbc85b7f	-0.006114423
118	0x3bbb3ac9	0.005713795
119	0x3c9052a8	0.017617539
120	0xbd542499	-0.051792715
121	0xbbd3b780	-0.006461084
122	0xbcc3cb58	-0.023900673
123	0xbda12644	-0.07868627
124	0xbd1c0270	-0.038088262
125	0x3c5a1320	0.013310224
126	0x3c370af1	0.011172042
127	0x3daa5a84	0.08318046

features.9.weight f4 [128]
0	0x3f29ff44	0.6640513
1	0x3f638fcc	0.8889129
2	0x3f1e3842	0.6180459
3	0x3f28d633	0.6595184
4	0x3f29213a	0.66066325
5	0x3f40484a	0.75110304
6	0x3f3affba	0.7304646
7	0x3f337489	0.70099694
8	0x3f281903	0.65663165
9	0x3f256cdf	0.6461925
10	0x3f3ff3f5	0.74981624
11	0x3f29ab93	0.66277426
12	0x3f2ec699	0.68271786
13	0x3f20cce6	0.6281265
14	0x3f2c82ba	0.6738697
15	0x3f2e8c90	0.6818323
16	0x3f2d661a	0.6773392
17	0x3f347d3d	0.705036
18	0x3f33b28f	0.70194334
19	0x3f2bbec6	0.6708797
20	0x3f2edc93	0.6830532
21	0x3f3b8b0e	0.73259056
22	0x3f31718c	0.69313884
23	0x3f268b80	0.6505661
24	0x3f3b7d31	0.732379
25	0x3f19a0c2	0.6001092
26	0x3f374018	0.71582174
27	0x3f3045f7	0.6885676
28	0x3f31247d	0.691963
29	0x3f32cb1d	0.69841176
30	0x3f27061a	0.65243685
31	0x3f1e6461	0.61871916
32	0x3f3644cc	0.71198726
33	0x3f316e71	0.69309145
34	0x3f1f346f	0.6218938
35	0x3f44465a	0.7666985
36	0x3f378bf2	0.71697915
37	0x3f386a8a	0.72037566
38	0x3f3a382f	0.7274198
39	0x3f3cf506	0.73811376
40	0x3f358d20	0.70918465
41	0x3f2b5fe0	0.6694317
42	0x3f2cd286	0.67508733
43	0x3f26180f	0.6488046
44	0x3f346f4f	0.70482343
45	0x3f3b8b33	0.73259276
46	0x3f2584ea	0.64655936
47	0x3f1dc555	0.6162923
48	0x3f22e6e6	0.63633573
49	0x3f3a52e0	0.7278271
50	0x3f3db9a4	0.7411139
51	0x3f308318	0.68950033
52	0x3f3fa37e	0.74858844
53	0x3f34b3bf	0.7058677
54	0x3f332938	0.6998477
55	0x3f26f165	0.6521209
56	0x3f1eaee3	0.61985606
57	0x3f306429	0.6890283
58	0x3f298e59	0.6623283
59	0x3f331769	0.69957596
60	0x3f1eb605	0.6199649
61	0x3f295a81	0.66153723
62	0x3f356a56	0.7086538
63	0x3f2f6137	0.68507713
64	0x3f41ce0b	0.7570502
65	0x3f2a1d05	0.6645053
66	0x3f44586f	0.7669744
67	0x3f34b973	0.70595473
68	0x3f325322	0.696581
69	0x3f231518	0.6370406
70	0x3f326615	0.69687015
71	0x3f3ad686	0.72983587
72	0x3f2f5281	0.68485266
73	0x3f34158a	0.70345366
74	0x3f34b59c	0.70589614
75	0x3f2ecd33	0.6828186
76	0x3f37222e	0.7153653
77	0x3f41a318	0.75639486
78	0x3f4b8fc5	0.7951625
79	0x3f31e48f	0.6948938
80	0x3f24a0ee	0.6430806
81	0x3f1f6c07	0.6227421
82	0x3f36647f	0.71247095
83	0x3f365239	0.7121921
84	0x3f37fe06	0.71871984
85	0x3f2f3085	0.6843341
86	0x3f2204ae	0.6328839
87	0x3f2a31de	0.6648234
88	0x3f2b02db	0.6680123
89	0x3f35a743	0.70958346
90	0x3f37d66f	0.71811575
91	0x3f2178d0	0.6307497
92	0x3f34cc93	0.70624655
93	0x3f35bd88	0.70992327
94	0x3f519ba1	0.81878096
95	0x3f40d38d	0.753228
96	0x3f289ada	0.65861285
97	0x3f2e1dae	0.6801404
98	0x3f20b098	0.6276946
99	0x3f38c462	0.72174656
100	0x3f2be93c	0.6715276
101	0x3f347466	0.7049011
102	0x3f34f157	0.70680755
103	0x3f201f86	0.625481
104	0x3f2a665c	0.6656244
105	0x3f2e46b6	0.68076646
106	0x3f2eb620	0.6824665
107	0x3f2a9256	0.6662954
108	0x3f24add3	0.64327735
109	0x3f2a39ba	0.66494334
110	0x3f29dabc	0.6634939
111	0x3f2798f7	0.6546778
112	0x3f286b86	0.6578907
113	0x3f24ba31	0.64346606
114	0x3f449702	0.7679292
115	0x3f1d147f	0.613594
116	0x3f2ed994	0.6830075
117	0x3f2a31bc	0.6648214
118	0x3f3483d8	0.7051368
119	0x3f2b9d40	0.6703682
120	0x3f35b052	0.7097217
121	0x3f2b7a13	0.66983145
122	0x3f3ca35e	0.7368678
123	0x3f3c4043	0.73535556
124	0x3f21a6fb	0.63145417
125	0x3f3f45be	0.74715793
126	0x3f4324cb	0.76228017
127	0x3f2b655a	0.66951525

features.9.bias f4 [128]
0	0xbf3ba7d7	-0.7330298
1	0xbf46f2a5	-0.77713996
2	0xbf399c4a	-0.72504103
3	0xbf32771e	-0.6971301
4	0xbf3cb7db	-0.7371804
5	0xbf1c75b8	-0.61117125
6	0xbf3b7542	-0.73225796
7	0xbf1c219c	-0.60988784
8	0xbf3c48da	-0.7354866
9	0xbf1d67a4	-0.6148627
10	0xbf50f8eb	-0.8162982
11	0xbf3c104c	-0.7346237
12	0xbf1e0cfd	-0.6173857
13	0xbf3547b8	-0.7081256
14	0xbf370b81	-0.7150193
15	0xbf31e7e7	-0.6949448
16	0xbf38f70f	-0.7225198
17	0xbf1c9b03	-0.6117403
18	0xbf085c73	-0.53266066
19	0xbf2bd7a2	-0.67125905
20	0xbefe34eb	-0.49649748
21	0xbf1be65c	-0.60898376
22	0xbf0bb922	-0.54579365
23	0xbefacbd7	-0.48983642
24	0xbf1121b5	-0.5669206
25	0xbf215a13	-0.6302807
26	0xbf3358bf	-0.7005729
27	0xbf40e08c	-0.7534263
28	0xbf1b62e6	-0.6069778
29	0xbf4748f3	-0.77845687
30	0xbf260e49	-0.6486555
31	0xbf09bb67	-0.5380158
32	0xbf403266	-0.750769
33	0xbf3af1cf	-0.7302522
34	0xbf2d6c57	-0.6774344
35	0xbf2dcd51	-0.6789141
36	0xbf36bfd5	-0.7138646
37	0xbf22b0ee	-0.63551223
38	0xbf3c578c	-0.73571086
39	0xbf17a470	-0.59235287
40	0xbf4a6a2a	-0.79068244
41	0xbf17bd02	-0.5927278
42	0xbf2b8f43	-0.67015475
43	0xbf0a2b8c	-0.539727
44	0xbf3e2efb	-0.74290437
45	0xbf4e4aef	-0.8058309
46	0xbf19d808	-0.6009526
47	0xbf244077	-0.64160866
48	0xbf279ab4	-0.65470433
49	0xbf2caf55	-0.67455035
50	0xbf3084e1	-0.6895276
51	0xbf1fa4e2	-0.62360966
52	0xbf3437d5	-0.7039769
53	0xbf1b4be6	-0.60662687
54	0xbf4169dc	-0.75552154
55	0xbf201c0d	-0.625428
56	0xbf2db044	-0.67847085
57	0xbf3b9bf9	-0.7328487
58	0xbf23f429	-0.64044434
59	0xbf471093	-0.77759665
60	0xbf0e8610	-0.55673313
61	0xbf3f65ff	-0.7476501
62	0xbf4268a8	-0.7594094
63	0xbf25a26e	-0.64700973
64	0xbf44776e	-0.76744735
65	0xbf1dfd8f	-0.61715025
66	0xbf1a0a72	-0.6017219
67	0xbf545f20	-0.8295765
68	0xbf216a51	-0.6305285
69	0xbf2adc93	-0.6674282
70	0xbf2d0b87	-0.67595714
71	0xbf4ac773	-0.79210585
72	0xbf3f16a0	-0.746439
73	0xbf04200a	-0.5161139
74	0xbf3f91e0	-0.7483196
75	0xbf47d9b2	-0.7806655
76	0xbf4373f3	-0.763488
77	0xbf474082	-0.77832806
78	0xbf1d6f19	-0.61497647
79	0xbf474d11	-0.7785197
80	0xbf2e4096	-0.680673
81	0xbf2b24e3	-0.6685316
82	0xbf11a73a	-0.5689579
83	0xbf2cb1ea	-0.67458975
84	0xbf4d227b	-0.8013074
85	0xbf2228f2	-0.6334373
86	0xbf269610	-0.6507273
87	0xbf37565f	-0.71616167
88	0xbf1e3b6f	-0.6180944
89	0xbf3e8c25	-0.74432594
90	0xbf5bb991	-0.85830027
91	0xbf35fca1	-0.71088606
92	0xbf37e39c	-0.7183168
93	0xbf443bc2	-0.76653683
94	0xbf50d5c4	-0.8157618
95	0xbf498fb8	-0.7873492
96	0xbf0aa88b	-0.54163426
97	0xbf4c8b2e	-0.7989987
98	0xbf29566b	-0.6614749
99	0xbf32a3c7	-0.69781154
100	0xbf3f286c	-0.74671054
101	0xbf461d75	-0.773887
102	0xbf38f1bb	-0.7224385
103	0xbf355c71	-0.7084418
104	0xbf0f98bd	-0.56092435
105	0xbf2a49f6	-0.66519105
106	0xbf177f3d	-0.59178525
107	0xbf2da572	-0.67830575
108	0xbf27796a	-0.6541964
109	0xbf39db22	-0.72599995
110	0xbf32f67d	-0.6990736
111	0xbf1e134c	-0.61748195
112	0xbf428a55	-0.7599233
113	0xbf263e11	-0.64938456
114	0xbf27f633	-0.65610045
115	0xbf1c1eb3	-0.60984343
116	0xbf34c285	-0.70609313
117	0xbf13e9fb	-0.577789
118	0xbf21ff88	-0.63280535
119	0xbf1673b0	-0.58770275
120	0xbf236c09	-0.63836724
121	0xbf355236	-0.7082857
122	0xbf214db2	-0.6300918
123	0xbf383237	-0.7195162
124	0xbf3326e0	-0.69981194
125	0xbf277687	-0.65415233
126	0xbf39eedc	-0.72630095
127	0xbf462904	-0.77406335

features.9.running_mean f4 [128]
0	0x3ceb9319	0.028756665
1	0xc0295344	-2.6457071
2	0xbf267bc4	-0.650326
3	0xbfc7662c	-1.5578055
4	0xbff57871	-1.9177381
5	0xc00cb252	-2.1983838
6	0xbffec149	-1.9902736
7	0xc021ad04	-2.526185
8	0xbfafee5d	-1.3744618
9	0xc0073e4b	-2.113177
10	0xbfafe127	-1.3740586
11	0xbf84ca7e	-1.0374296
12	0xc0143b4e	-2.3161197
13	0x3efe9484	0.49722683
14	0xbf498921	-0.7872487
15	0xbf9c34d5	-1.2203623
16	0xbfebbc2a	-1.8416798
17	0xc0197b1e	-2.3981395
18	0xc01393ff	-2.305908
19	0xbf9de917	-1.2336758
20	0xc0325345	-2.7863324
21	0xbffbbc1f	-1.9666785
22	0xc048dda5	-3.138528
23	0xc05f7aa0	-3.4918594
24	0xc00133ee	-2.0187945
25	0xc006363e	-2.0970607
26	0xc01cf619	-2.4525206
27	0xbfc75270	-1.5572033
28	0xc04a63e4	-3.1623468
29	0xbfcd385a	-1.6032822
30	0xbdec2e84	-0.1153231
31	0xbfc273f8	-1.5191641
32	0xbf98d177	-1.1938924
33	0xbfe10281	-1.7578889
34	0x3d6d08db	0.057869773
35	0xc0241cca	-2.5642571
36	0xbfbd8197	-1.4805173
37	0xc014ebcc	-2.326892
38	0x3f8ac460	1.0841179
39	0xc00e441e	-2.2229075
40	0xbf808613	-1.0040916
41	0xbf92764b	-1.144235
42	0xc0155685	-2.3334057
43	0xbf0d623f	-0.55228037
44	0xbfca715a	-1.5815842
45	0xc004e9b5	-2.0767643
46	0xc01044bc	-2.2541952
47	0xbe53b9cc	-0.20676345
48	0xbf03fdc8	-0.51559114
49	0xc04ddd2e	-3.2166247
50	0xbfeb4132	-1.8379271
51	0xbfeacaba	-1.8343117
52	0xbf01b8d4	-0.5067265
53	0xbfbd355b	-1.4781908
54	0xbf91adfa	-1.1381218
55	0xc00da0a7	-2.2129304
56	0xbe954856	-0.2915675
57	0xbfb6d8ce	-1.4284914
58	0xbfbd506c	-1.4790168
59	0xc01d6759	-2.4594328
60	0xbf884906	-1.0647285
61	0x3efd8211	0.49513295
62	0xc0404190	-3.0040016
63	0xc0506ae1	-3.2565234
64	0xbf8c0e5e	-1.0941885
65	0xc0073cb5	-2.1130803
66	0xbfefe558	-1.8741865
67	0xbfdca166	-1.7236755
68	0xbf84dec3	-1.0380481
69	0xbfe94ab1	-1.8225919
70	0xbfe5a091	-1.7939626
71	0xbfbae85e	-1.4602163
72	0xbf2b683f	-0.6695594
73	0xbfc9e13d	-1.5771862
74	0xbffaf9ca	-1.960748
75	0xbfd9de66	-1.7020996
76	0xbff064cb	-1.878076
77	0xc0074731	-2.1137202
78	0xc0224212	-2.5352826
79	0xbfd748b4	-1.6819062
80	0xbf1b2ede	-0.6061839
81	0xbec6fe51	-0.38865903
82	0xbedc498c	-0.43024862
83	0xc035580c	-2.833499
84	0xbf5a6252	-0.85306275
85	0xbff2748c	-1.8941817
86	0x3e2f4cf7	0.17119204
87	0xbfb61808	-1.4226084
88	0xbfe7cdf1	-1.8109723
89	0xbfae9b9a	-1.3641236
90	0xbf87087c	-1.0549464
91	0xbfa582f4	-1.2930589
92	0xbf3573f6	-0.7088007
93	0xc01955dd	-2.3958657
94	0xbf65df40	-0.8979378
95	0xc0141326	-2.3136687
96	0xc0208954	-2.5083818
97	0xbe779b6c	-0.24180382
98	0xbf8b0de2	-1.0863612
99	0xbfd37d74	-1.652266
100	0xbf810c91	-1.008196
101	0xbf30da9c	-0.6908357
102	0xbf099af8	-0.5375209
103	0xbed0ec03	-0.40805063
104	0xc0094005	-2.1445324
105	0xc0007811	-2.0073283
106	0xbfc085a2	-1.5040781
107	0xbf51a3ee	-0.8189076
108	0xc012bde3	-2.2928398
109	0xbf5eb24c	-0.8699081
110	0xbfbd6e2f	-1.479925
111	0xbeb700f3	-0.35742912
112	0xbfcaf72b	-1.585668
113	0xbea45741	-0.3209782
114	0xbff3bd19	-1.9042083
115	0xbf59d330	-0.8508787
116	0xbf1ccbee	-0.6124867
117	0xbf8b1682	-1.0866244
118	0xbfd10e71	-1.6332532
119	0xc036941e	-2.8527904
120	0xc030974d	-2.7592347
121	0xbf768431	-0.9629546
122	0xc0167b6a	-2.3512826
123	0xc075a7f3	-3.8383758
124	0xbfd93e31	-1.6972104
125	0xbfdc4871	-1.7209607
126	0xbfac6b3f	-1.3470229
127	0xbf6d277e	-0.92638385

features.9.running_var f4 [128]
0	0x3faf02e6	1.367276
1	0x40874eb1	4.228356
2	0x3f9da62a	1.2316334
3	0x3fc0a990	1.5051746
4	0x3fede762	1.8586237
5	0x4051fb43	3.2809608
6	0x3fdde152	1.7334387
7	0x400d65eb	2.2093456
8	0x3fc56cd9	1.5423843
9	0x3fdf8b48	1.746438
10	0x3f98e0cc	1.1943603
11	0x3fce31b1	1.6108915
12	0x4001700d	2.022464
13	0x3fe62f35	1.7983156
14	0x3fb3de01	1.4052125
15	0x3fdadf23	1.7099346
16	0x3fc85e1c	1.565372
17	0x4006c337	2.105665
18	0x402a3400	2.6594238
19	0x3fa64c11	1.2991964
20	0x40836087	4.105533
21	0x408465a6	4.1374083
22	0x4001449c	2.0198126
23	0x4056ac56	3.3542686
24	0x3fd4b743	1.6618427
25	0x3fc2716e	1.5190866
26	0x4004132e	2.0636706
27	0x3f9c592e	1.2214715
28	0x40030d16	2.0476737
29	0x3fb2a7d4	1.3957467
30	0x3fa34cd2	1.2757819
31	0x3fda83e6	1.7071502
32	0x3fa9eb18	1.327487
33	0x3fb32259	1.3994857
34	0x3f97365d	1.1813465
35	0x401bf0e1	2.436577
36	0x40056c56	2.0847373
37	0x40126698	2.2875118
38	0x3ff61b22	1.922703
39	0x3fed0dd2	1.8519843
40	0x3fb3b4ba	1.4039528
41	0x3fb4e9bc	1.413383
42	0x3fe4415c	1.7832446
43	0x402d8073	2.710965
44	0x3fdac135	1.7090212
45	0x3fa5b3d5	1.2945505
46	0x40027359	2.0382903
47	0x3fc1090a	1.5080884
48	0x402493d0	2.5715218
49	0x401b5d6c	2.427577
50	0x40217c2c	2.5232038
51	0x400b0a96	2.172521
52	0x3fd17c35	1.636603
53	0x401b90cd	2.430713
54	0x3fb8d265	1.4439207
55	0x3fef52e1	1.8697168
56	0x3fedd0dc	1.8579364
57	0x3fdce0ae	1.7256067
58	0x3fc4cffc	1.5375972
59	0x3fea2019	1.8291045
60	0x3fbfc00b	1.4980482
61	0x3faac84c	1.3342376
62	0x3ff1c944	1.8889546
63	0x3fe813d2	1.8131049
64	0x3fd4e82d	1.6633354
65	0x3ffbb093	1.9663261
66	0x403b86ed	2.9301102
67	0x3fbd7ff1	1.480467
68	0x400db96b	2.214442
69	0x3fdbc9a4	1.7170911
70	0x402890a5	2.6338284
71	0x3fcac98b	1.5842756
72	0x3fe89354	1.8169961
73	0x4049de32	3.1541867
74	0x4014dd1b	2.3259952
75	0x3fb81ca7	1.4383744
76	0x3fe776d6	1.8083141
77	0x3fc276c3	1.5192493
78	0x400cf166	2.2022338
79	0x3fd01780	1.6257172
80	0x3fb90507	1.4454659
81	0x3fb280bd	1.3945538
82	0x404f2319	3.2365172
83	0x3fec9d28	1.848546
84	0x3fb38ec2	1.4027941
85	0x3febed32	1.8431761
86	0x3fac110c	1.3442702
87	0x3fc603d9	1.5469924
88	0x3fae78a9	1.3630573
89	0x3fac4b9c	1.3460574
90	0x3f6cd63b	0.9251439
91	0x3f99a485	1.2003332
92	0x3ff23e4f	1.8925265
93	0x3fc496c6	1.5358512
94	0x3fd8cc8b	1.6937422
95	0x400c9f4a	2.1972222
96	0x3fea3910	1.8298664
97	0x3f946d88	1.1595926
98	0x4013007d	2.2969048
99	0x3ff3fb15	1.9060999
100	0x3fcc54ce	1.596338
101	0x3fade028	1.3584032
102	0x3fa4d8d3	1.287867
103	0x3f9ee4b2	1.2413542
104	0x40117859	2.2729704
105	0x3ffa81bd	1.9570843
106	0x3ffa5aa4	1.9558911
107	0x3fb269ed	1.3938576
108	0x400941cc	2.144641
109	0x3fb44040	1.4082108
110	0x3ffcb4b2	1.9742644
111	0x3fe04384	1.7520604
112	0x3fb9091f	1.4455909
113	0x3fa0e828	1.2570848
114	0x4055d6cb	3.341235
115	0x3fbf5793	1.49486
116	0x3fe66a58	1.8001204
117	0x3fa9de36	1.3270938
118	0x3febd93f	1.8425673
119	0x3fd33990	1.6501942
120	0x400f1c59	2.2361052
121	0x3ff13215	1.8843409
122	0x3ffe313f	1.9858779
123	0x3fe757cb	1.8073667
124	0x3fdb732a	1.714452
125	0x3fdf5206	1.7446907
126	0x4043bb3f	3.0583036
127	0x3f7cac10	0.98700047
