logs/cifar10_quantized_best_gpu.pth (torch, 913996 bytes, 20 tensors)

features.0.weight f4 [32, 3, 3, 3]
000000 09 d8 b2 3c fa f2 51 3d ee e5 0c bd 78 11 82 3d
       0.02183153 0.05125711 -0.034398966 0.06350988
000010 ea 4b 80 bd 25 0e 85 3c b8 e9 26 be 41 cf 91 3d
       -0.062644795 0.016242096 -0.16300094 0.07119609
000020 8d 6b 92 3d 6c 81 17 be ee 84 26 3e 9f 9c 07 3e
       0.0714942 -0.14795464 0.16261646 0.1324334
000030 ed 6b a2 3d 88 ce 83 3d 50 9e 2d 3e a4 b0 88 bd
       0.079307415 0.06435877 0.16954923 -0.066743165
000040 5d 84 3c 3e b2 59 b8 3d 96 1b 34 be b7 f1 2c 3d
       0.18409868 0.09001483 -0.17588648 0.042222705
000050 ad a0 71 3d 35 f3 53 be 36 91 e2 bd 91 41 5f 3e
       0.058991123 -0.20698245 -0.11062853 0.21802355
000060 65 e0 a3 be fe 86 17 be 8d b2 4a bc 40 5d 5d be
       -0.32007137 -0.14797589 -0.012371671 -0.21617603
000070 16 b5 ef 3c a8 f9 74 be da 9e 31 3e 9c 7b 5a be
       0.029261153 -0.23923361 0.17345753 -0.21336216
000080 72 83 17 3e 20 57 86 3d d3 f2 e8 bd bf 0f f7 3d
       0.14796236 0.065595865 -0.1137444 0.1206355
000090 f4 42 3e bb ca 05 80 3e 88 34 9e 3c 99 01 7e 3c
       -0.0029031606 0.25004417 0.019312158 0.015503311
0000a0 57 2a b1 3d 9b 8e 57 3c 17 61 f3 3d 2a 48 ff 3d
       0.08650654 0.013156558 0.11883753 0.12464936
0000b0 3a d8 af 3d b9 ab f3 bd 3d 03 13 3e 94 5d 79 bc
       0.08586164 -0.11897988 0.14356704 -0.015220065
0000c0 fb d6 03 3e 12 f3 3a be 42 1a 4b be e4 fd 0f bd
       0.12874977 -0.18256786 -0.19834235 -0.03515424
0000d0 13 7d 78 be a0 81 fd 3d e0 1b 1f 3d b1 08 8c 3d
       -0.24266462 0.1237824 0.038844943 0.06837595
0000e0 27 1c 81 3d c0 1a 93 bc 06 df 31 3e f5 69 fd bd
       0.06304198 -0.017957091 0.17370233 -0.12373725
0000f0 ac 43 12 bd f4 5f 41 be 2f a1 62 3d f1 8c ed 3b
       -0.03570907 -0.1888426 0.055329498 0.0072494675
000100 d8 c9 4c 3d 72 91 dc bd 1b c9 66 3e 58 77 a1 bd
       0.04999718 -0.10769929 0.22537653 -0.07884091
000110 c5 a2 1a be f1 91 b9 bd 2e 3a 1b 3e e5 a8 43 3d
       -0.15101154 -0.09061039 0.15158913 0.047768492
000120 a1 d8 b4 3e be e3 f6 bd 21 05 95 be b4 f3 cf bb
       0.35321525 -0.12055157 -0.29105476 -0.0063461903
000130 d1 64 87 bd e4 3a 87 bb 43 18 11 3e 85 3f 22 3e
       -0.06611026 -0.0041268934 0.14169411 0.15844543
000140 42 9f 24 be 7a 54 23 be 69 5c 11 3e ae 56 bd bb
       -0.16076377 -0.15950194 0.14195408 -0.0057781553
000150 d8 d7 25 3d c8 a6 21 be 47 6e 74 3e 6a 91 a6 bd
       0.040489048 -0.15786278 0.23870192 -0.08133204
000160 64 e7 65 bd 29 27 36 3d e2 96 f0 3c e6 6a 91 bd
       -0.056128874 0.04447094 0.029368822 -0.071004674
000170 33 7e 0f 3e 69 ed 05 3e 93 1a 9b be 3d 93 1b bd
       0.14012985 0.13078846 -0.30293712 -0.037982214
000180 94 16 af 3e c6 dd 25 bc 3a 8a 1c be 7d 21 cf bd
       0.34196913 -0.010123676 -0.15287104 -0.10113809
000190 5a d0 2f bb 53 61 07 3e b3 da db 3c 0a 2b 62 be
       -0.0026827068 0.1322072 0.026837682 -0.2208673
0001a0 ea 82 16 3e 61 21 b6 3d e4 f5 93 bc f2 eb 0b be
       0.14698377 0.08893085 -0.018061586 -0.13664225
0001b0 ee 3e f3 3d da 07 91 3c 75 8e 6c 3e f4 69 50 3e
       0.11877237 0.01770394 0.23101218 0.20352918
0001c0 b9 be b0 3d da 4a 1d be 85 a3 1f bd 44 ad bc bd
       0.086301275 -0.15360585 -0.038974304 -0.09212735
0001d0 2b 83 63 3d 63 ed ec bd 65 dc 0c be c5 62 0c be
       0.055545013 -0.115687154 -0.13755949 -0.13709553
0001e0 c9 19 56 be 47 90 a5 be e8 aa 26 bd 04 1b 5a be
       -0.20908274 -0.32336637 -0.040690333 -0.21299368
0001f0 74 c4 88 be 1d 8e 4a bd 4c e2 3c 3c 50 42 eb bd
       -0.26712382 -0.049451936 0.011528563 -0.114872575
000200 46 a8 57 3e d3 1f 7d bd 54 09 0c 3e 19 87 43 3e
       0.21060285 -0.061797928 0.13675433 0.19094504
000210 0c d6 0e be a2 95 2e 3e a3 9d 13 3e 62 a1 52 bd
       -0.1394884 0.17049268 0.14415602 -0.051423438
000220 de 9b f8 bd 61 14 72 be cb 0f 55 3d e5 9a 4d 3c
       -0.12139104 -0.23640586 0.052017014 0.012549137
000230 05 38 df 3d 6c a6 65 be b8 86 20 3e f3 37 4d be
       0.10899357 -0.22426766 0.15676391 -0.20040874
000240 88 41 3d bd f9 8b 9d 3d fa 50 b0 3c 50 e4 2d 3e
       -0.046205074 0.07692713 0.021522988 0.16981626
000250 0b 28 88 3e c4 05 ea bd be 52 e9 bc a8 66 74 bd
       0.2659305 -0.11426881 -0.028481837 -0.059668213
000260 ce ff c0 bd dc e8 47 be 69 e3 2c 3e bb 07 45 be
       -0.09423791 -0.19522423 0.16883625 -0.1924123
000270 73 0c b1 3d 43 31 ea 3d a7 16 dc 3d d0 c3 35 be
       0.086449526 0.11435177 0.10746508 -0.17750478
000280 b6 d4 39 3e 90 f9 7f bb 1b 3b 22 3e 9a 6c 7f 3b
       0.18147549 -0.0039058663 0.1584286 0.0038974644
000290 92 65 1c 3e 5b ff 4d bd 6b 79 f4 bd 7f aa 0a 3e
       0.15273121 -0.050292354 -0.11937221 0.13541602
0002a0 06 aa 17 3d 3f 01 2f be 4b 0c 3b be 9c fd 23 3d
       0.03702738 -0.17090319 -0.18266408 0.040036783
0002b0 6b 57 3e 3e ab 60 27 bd ce 61 23 be 92 bb fc bd
       0.18588035 -0.040863674 -0.15955278 -0.12340464
0002c0 47 10 15 be ec 34 33 3d 21 1c a8 3d ae e9 49 be
       -0.1455699 0.043751642 0.0820849 -0.19718048
0002d0 49 7d cb 3d 34 df 42 3e b9 2a 42 3d 76 6a cc bd
       0.099360056 0.19030458 0.047404025 -0.09981243
0002e0 50 27 c0 3d 93 18 1e 3e ff 1c 5f 3c 2b 4f d0 bd
       0.09382498 0.15439062 0.013617753 -0.1017135
0002f0 03 a6 48 bd 24 1d 48 3d db d8 01 be 3a 4a 1a be
       -0.048986446 0.048855916 -0.1268038 -0.15067378
000300 4a 04 ab 3d ec 47 6e 3e 3a b7 85 bd e2 e2 cf bd
       0.083504274 0.23269624 -0.06529088 -0.10150696
000310 75 bf f5 3c 4d e2 73 3d 23 28 dc 3d 88 43 5a 3c
       0.02999852 0.05954199 0.10749843 0.013321765
000320 f7 63 64 be 09 e5 bb bd e4 c2 84 3e 09 6e 85 3d
       -0.22303759 -0.09174544 0.2592994 0.06515128
000330 2d b8 47 bd 72 fe 92 bd 51 9c fd bc a0 a9 da bd
       -0.048759628 -0.07177438 -0.030958327 -0.10676885
000340 54 9d da bd 7a 87 1c 3d 95 3c e9 3d 14 59 1b 3e
       -0.10674539 0.038215138 0.11388508 0.151707
000350 da da 38 be 45 1d 04 be 51 03 26 bc af 42 7b 3e
       -0.18052235 -0.1290179 -0.010132627 0.24537157
000360 0e 47 2a 3e f4 58 ce 3c f7 b7 08 3e 9c c6 c3 bd
       0.16628668 0.0251889 0.13351427 -0.09559366
000370 22 ca 3a be b5 ee c8 3d f1 9b 19 bd 30 6c 47 3c
       -0.1824117 0.09811155 -0.037502233 0.01217179
000380 56 af 03 be 33 b8 05 3e 04 3e ec 3d 78 d8 00 3d
       -0.12859854 0.13058548 0.11535266 0.03145644
000390 43 4b 69 be 92 7d 90 be 1f 60 6b be 3a 42 34 3e
       -0.22782616 -0.28220803 -0.22985886 0.17603388
0003a0 7a 3f 1d 3e b4 84 61 3e c1 21 f3 3d b3 c3 91 3d
       0.15356246 0.22023278 0.118716724 0.07117405
0003b0 41 b0 e3 3c cd 37 3e be 94 d9 28 be 6a b8 1d be
       0.027794005 -0.18575974 -0.1648925 -0.1540238
0003c0 85 2a 13 3e 8b 7e ef 3c 59 7a a6 3d 3f 06 5c bd
       0.14371689 0.029235145 0.08128805 -0.053716894
0003d0 05 75 22 3e 35 41 99 bd 56 dc fa bd 0c 5c 5b 3e
       0.15864952 -0.074831404 -0.12249057 0.21421832
0003e0 af dd ac bd 4b b5 36 3d e1 4d 67 3d dd 02 e1 bd
       -0.0844072 0.04460649 0.056470755 -0.10986874
0003f0 36 31 04 bd 50 a2 98 3d cd c3 09 bd 54 de 7a be
       -0.032273494 0.07452834 -0.033633996 -0.24498874

features.0.bias f4 [32]
000000 71 c9 b9 bd e3 05 82 3e c4 5a 5e 3e db c8 45 3d
       -0.09071625 0.25395116 0.21714312 0.048287254
000010 ce 5b bd 3b a1 14 4d be 63 2e 31 bd 64 61 4a 3e
       0.0057787662 -0.200274 -0.04325713 0.19763714
000020 ee bf f0 3c 0c 94 90 3c c2 c5 54 bc 59 cf 13 be
       0.029388394 0.01764872 -0.012986602 -0.14434566
000030 f6 35 b5 3d 13 0a 2a 3e 72 e2 dc 3c 0e d8 15 bd
       0.08848183 0.16605406 0.026963446 -0.036583
000040 f5 7b 10 3e 98 0e bc 3d fa b8 61 3d c6 6b 8b 3d
       0.14109786 0.09182471 0.055108048 0.068076655
000050 f1 54 9e 3d 4d 1c 2f 3e 26 d5 31 3e 09 76 63 3a
       0.07731045 0.1710064 0.17366466 0.00086769514
000060 d7 7f 0f be 69 ba fd 3c 02 94 99 3c 59 57 a0 bc
       -0.14013611 0.030972676 0.018747333 -0.0195729
000070 6c 04 c7 bd 73 77 2c 3b 34 a9 c5 3d d5 7a 85 3d
       -0.0971764 0.0026316314 0.096514136 0.06517569

features.1.weight f4 [32]
000000 53 28 60 3f 7b 95 3f 3f 0b 7b 6d 3f 74 80 75 3f
       0.8756153 0.74837464 0.92765874 0.9589913
000010 6c b1 60 3f 44 88 5c 3f fb 50 65 3f af 5f 8d 3f
       0.87770724 0.86145425 0.8957669 1.1044825
000020 c2 86 90 3f 2a 94 b4 3f 12 6a 83 3f 57 58 65 3f
       1.1291125 1.4107716 1.0266745 0.8958792
000030 65 e4 67 3f a2 d6 8c 3f 8d 8e 84 3f 37 4d 4a 3f
       0.9058288 1.1003001 1.0356003 0.7902407
000040 e9 a7 8b 3f 47 52 72 3f 9d e2 63 3f 82 d0 7a 3f
       1.0910617 0.94656795 0.8901766 0.9797441
000050 9a 14 84 3f 7c 33 8c 3f 6a af 71 3f d0 43 6e 3f
       1.0318787 1.0953212 0.94408286 0.93072224
000060 b3 db 61 3f 37 fb 4f 3f 88 ba 8a 3f bf b5 65 3f
       0.8822586 0.812427 1.0838175 0.8973045
000070 28 f5 91 3f 6b 16 5a 3f fd 13 61 3f 24 68 64 3f
       1.1402941 0.8519046 0.87921125 0.89221406

features.1.bias f4 [32]
000000 28 a5 2c be d6 0e 2e be 2d 26 d9 bd 13 05 36 be
       -0.16859877 -0.16997847 -0.106029846 -0.17775373
000010 88 60 e3 be 9c 1f 92 be f8 08 70 bd 8a 37 01 bd
       -0.44409585 -0.2853974 -0.058602303 -0.031547107
000020 d4 b1 48 3d cc 67 1f be 8c c8 c4 be 06 79 0d bd
       0.048997715 -0.15566939 -0.38434255 -0.034539245
000030 85 aa be be be 39 f3 3d 5c 64 19 be 85 ae e6 be
       -0.3723947 0.11876248 -0.1497969 -0.45055023
000040 ba 23 d9 3c f7 68 88 3d c6 18 86 be 2a b9 66 3e
       0.026506294 0.066606455 -0.26190776 0.22531572
000050 c4 a6 08 be 75 a5 45 be 35 5d d0 bd df 12 4c be
       -0.13344866 -0.19301398 -0.10174028 -0.19929074
000060 23 46 40 be 2d d2 62 3d 99 ec 8b bc 07 d4 7d be
       -0.18776755 0.05537622 -0.017080592 -0.24787913
000070 3b 47 52 3e 82 01 57 3e c9 66 34 be 0b be 02 be
       0.20534985 0.20996669 -0.17617334 -0.12767808

features.1.running_mean f4 [32]
000000 c5 6a 0f be ee 75 6e 3e 6a c9 4a 3e 63 bb b1 3d
       -0.14005573 0.23287174 0.19803396 0.08678319
000010 6e ae 33 3e 7d f7 4a be ee 1b 6a bc 28 d4 27 3e
       0.17547008 -0.19820972 -0.0142888855 0.16389525
000020 de 9f 94 3d 46 d4 fe bc 23 a9 e3 3d ad e3 13 be
       0.07257055 -0.03110708 0.11116245 -0.1444232
000030 07 3c 10 3f ad a2 37 3e 8e 23 fd 3c b5 ac 2d 3a
       0.56341594 0.1793315 0.030900743 0.00066251616
000040 11 5c 1a 3e c2 de d6 3d 31 72 f9 bd 8a b0 a8 3d
       0.15074183 0.104917064 -0.121799834 0.08236797
000050 89 d7 9f 3d a9 0c 29 3e 0d a2 15 3e cc e4 aa 3d
       0.07804782 0.16508736 0.14612599 0.08344421
000060 04 f8 0e be 51 b7 13 3d 6f 68 69 bc fa 79 48 be
       -0.13961798 0.036063496 -0.01424609 -0.1957778
000070 5e ba a8 bd 5e 2d 02 3d 43 49 45 3e e5 81 37 3d
       -0.08238672 0.031781547 0.19266228 0.04480161

features.1.running_var f4 [32]
000000 c9 8a 33 3f 45 42 e6 3d 91 9b b8 3e 30 89 38 3e
       0.70133644 0.11243109 0.36056188 0.18021083
000010 77 1a 46 3f 7f f2 bb 3e c0 73 01 3f 08 e4 4f 3e
       0.7738413 0.36708447 0.50567245 0.20301831
000020 e9 f1 fa 3e 77 ed d9 3e 8c 47 fa 3e e8 a3 4c 3f
       0.49012688 0.42563984 0.4888271 0.799376
000030 2d 49 8a 40 01 88 4e 3e e8 b1 3b 3d 24 f9 2b 3e
       4.3214326 0.20169069 0.04582396 0.16794258
000040 ef a1 7b 3e 36 31 48 3e 51 87 b1 3f 6b d2 94 3e
       0.24573492 0.19550022 1.386942 0.29066786
000050 0b 59 8f 3d 8f a2 85 3f 91 25 eb 3e c2 86 6f 3e
       0.069994055 1.0440234 0.45927098 0.2339125
000060 89 3f eb 3d d2 f0 46 3e 89 1d 01 3f fd 5e 28 3f
       0.11486728 0.19427803 0.5043569 0.6576994
000070 f2 ba 20 3f 0a 2c b6 3e d9 52 b6 3e d7 59 52 3f
       0.62785256 0.35580474 0.35610083 0.82168335

features.4.weight f4 [64, 32, 3, 3]
000000 a8 ef c9 bd 21 de 94 bd bd 36 ec bc ed 5d 90 bd
       -0.09860164 -0.0726893 -0.028834695 -0.07049165
000010 29 ae 5e 3d 23 4d 2a 3d 89 2b 51 3d 45 a9 a9 bc
       0.05436531 0.04157747 0.05106691 -0.020710597
000020 ef 01 02 bc 13 0c b3 bd 57 0f 83 bd 25 d6 1d bd
       -0.007935031 -0.08742537 -0.0639941 -0.038534302
000030 ae 78 0f 3d f3 cc 99 3c 51 f9 4b bd 91 f4 0a 3e
       0.0350272 0.018774485 -0.049798314 0.13569857
000040 ae 18 a6 3d 73 64 06 3c 04 55 17 bc 6f 65 87 bd
       0.08110176 0.00820266 -0.009236578 -0.06611144
000050 f0 b7 8b bd f9 c5 b5 bc 18 af d4 3c 60 0f 21 bc
       -0.06822193 -0.022189127 0.025962397 -0.009830326
000060 95 c8 86 be 8b 1a 2d be fa 67 93 be 29 ac d9 bc
       -0.26324907 -0.16904657 -0.28790265 -0.02657135
000070 72 7c 40 b8 eb 00 e7 3d d2 45 a8 3d 1b 12 12 3d
       -4.5892266e-05 0.11279472 0.08216442 0.035661798
000080 a9 81 90 bd ac 47 02 be 0f 66 e9 bd 41 73 00 be
       -0.07055981 -0.12722653 -0.11396419 -0.12543966
000090 96 ac a8 bd dd a3 2f be 14 63 d2 bd 78 d9 7e bd
       -0.08236043 -0.17152353 -0.10272804 -0.062219113
0000a0 87 6b 17 be d9 05 26 bd 17 a4 1c 3d 05 61 6f 3d
       -0.14787112 -0.04053292 0.038242426 0.058442134
0000b0 f7 d1 b1 3c 0f 00 8c bc 68 f7 aa 3c 8d 0f 0f bd
       0.021706564 -0.017089872 0.020869926 -0.03492694
0000c0 4f 8f 99 3b ee 10 bb 3a 04 22 a1 bd 47 e7 9b bd
       0.004686273 0.0014272013 -0.07867816 -0.07612472
0000d0 cb da 4f bd fa 1b 3b 3d 4d 26 f3 bc f3 dd b2 3b
       -0.050745767 0.045680977 -0.02968135 0.0054585873
0000e0 ad c4 1a 3c 03 8b 54 bd 36 c8 86 bd b7 e9 08 be
       0.009446305 -0.051890384 -0.06581156 -0.13370405
0000f0 b0 bb 96 3a 80 c6 53 3d 5c a0 27 3e 41 70 a7 bd
       0.0011500027 0.051702976 0.16369766 -0.081757076
000100 90 ad 59 bc 11 be 76 bc d4 ba 15 3e c2 0c ef bb
       -0.013286009 -0.015059964 0.1462205 -0.007295222
000110 cf 1b a3 bd dc 79 9a 3d 2e 6f 92 3d 98 9a c4 bc
       -0.079642884 0.07542774 0.07150112 -0.023999497
000120 85 73 82 bd 24 84 9c bd 2a 57 43 bc a0 2b c0 bd
       -0.0636969 -0.07642391 -0.011922637 -0.09383321
000130 18 e5 cb bc 28 f1 dc 3c ef 02 18 3d 11 cb b7 bc
       -0.024889514 0.026970461 0.037112173 -0.022435697
000140 75 d4 9d bc de c4 73 3e 86 c0 82 3e 14 f9 22 3e
       -0.019266346 0.23805568 0.2553751 0.15915328
000150 2b bc 8d 3e 46 35 52 3e 9d 76 2c 3e 89 4c a9 bd
       0.27682623 0.20528135 0.16842122 -0.08266551
000160 6d b7 82 be a7 88 67 be 8c 3a d8 bd f3 4c 8d bd
       -0.25530568 -0.22610722 -0.10558042 -0.068994425
000170 11 38 c5 3d a3 9c 16 be cd b9 13 be a0 4c 2a 3d
       0.096298344 -0.1470819 -0.14426346 0.04157698
000180 d1 87 4a 3b e4 2a 5f bd ef a6 f6 3d f6 95 a7 bb
       0.0030903707 -0.054484263 0.12043559 -0.0051143123
000190 e0 77 a2 3d 20 b1 cc 3d 40 74 da bb d2 48 76 bd
       0.079330206 0.099947214 -0.00666669 -0.06012804
0001a0 2b 2e 42 3d 51 e4 1a be a1 ec 91 be 57 83 59 be
       0.04740731 -0.15126158 -0.28500846 -0.21241508
0001b0 e3 2c d2 bd ea c1 e4 bd 9c 65 49 bd 7d 53 d3 bd
       -0.10262468 -0.11169799 -0.049169168 -0.103186585
0001c0 a6 5d 0b be 47 2a de bd 90 3d 69 3c 6c e5 9c bd
       -0.13609943 -0.108479075 0.014235869 -0.07660946
0001d0 15 ec d2 bd d4 25 c0 3c ae db 04 3e f6 41 0e 3e
       -0.10298935 0.023455538 0.12974426 0.1389235
0001e0 fc 42 86 bd 90 82 d6 3d c9 bc e2 3d 9b f5 a3 bd
       -0.06555745 0.104741216 0.11071164 -0.0800583
0001f0 25 86 62 be 15 90 04 be 28 b7 16 3d 8f 2e d0 bb
       -0.22121485 -0.12945588 0.036795765 -0.0063532065
000200 f0 91 a8 bd 01 07 0c 3c 09 c4 e1 bb 47 5b 6b bd
       -0.0823096 0.008546592 -0.0068898243 -0.057460096
000210 c4 30 82 bd e0 4a cd bd 35 ef d5 bd 06 a2 09 be
       -0.063569576 -0.10024047 -0.10446016 -0.13440713
000220 d6 f4 2f bd 5c 3e fd bc f5 58 13 be 44 c9 8c 3d
       -0.042958103 -0.030913524 -0.14389403 0.06874326
000230 9f 46 a0 3c 6f e8 32 be 52 57 53 bd a4 ab 1c be
       0.019564925 -0.17471479 -0.051596947 -0.1529985
000240 98 3f 81 bd d4 8e a9 3d bf a2 11 bb 54 9a c1 3c
       -0.06310958 0.082791954 -0.0022222248 0.02363316
000250 c2 a3 af bc 55 d4 0a be 60 d7 d9 bd 94 01 17 be
       -0.02144039 -0.1355756 -0.10636783 -0.14746696
000260 b5 cd 10 be 08 10 06 be 1a ae a4 bc 08 ab 4e 3d
       -0.14140971 -0.13092053 -0.02010255 0.050456077
000270 10 bf 06 be 03 b2 67 bd 14 8d 83 3d 8b 9f 7c 3b
       -0.13158822 -0.05656625 0.06423393 0.0038547243
000280 92 ff 89 3c 93 51 46 3d 9a 67 b6 3a ae ed 86 bc
       0.016845498 0.04841764 0.0013916374 -0.016470756
000290 59 64 ae bd 29 fb 37 bd b6 4d aa bd c2 ef c2 3c
       -0.085152335 -0.04491726 -0.083156034 0.023795966
0002a0 25 da 0c bd cb 8d 3b 3d 1d cc 7a 3c 5a 43 37 bb
       -0.034387726 0.04578952 0.015307453 -0.0027963729
0002b0 69 1f 06 bc b4 14 21 ba e7 a9 ef 3d b7 ea 96 3d
       -0.0081862 -0.00061447476 0.11702328 0.07368987
0002c0 86 88 6b bd 73 e1 61 bd c9 76 30 be 33 63 f0 bd
       -0.057503246 -0.055146646 -0.17232813 -0.11737671
0002d0 39 6a b2 3c 6d b0 29 3d f5 f3 36 3d 65 ee 92 bc
       0.021779167 0.04142802 0.04466625 -0.017935941
0002e0 04 e3 39 3b f4 8a 92 3b 06 f1 82 3b 18 08 6a bc
       0.0028364072 0.004472131 0.0039960174 -0.014284156
0002f0 2f 5a ae 3d fa ba aa bd db b6 8b 3c fe 0e 9c 3d
       0.08513295 -0.08336444 0.017054966 0.07620047
000300 67 ce 94 bd cb cd 82 bd d6 95 12 3d 07 f6 3b 3e
       -0.072659306 -0.06386908 0.035787426 0.1835557
000310 d0 32 ec 3d 4b 7e d0 3d 67 bd 7a 3c e7 32 cc 3d
       0.11533129 0.101803385 0.015303946 0.09970646
000320 91 88 ce 3b 07 ba cd bc 6b 3a b0 3d 9d d2 be 3d
       0.006302901 -0.025113119 0.08604892 0.09317515
000330 09 be d5 bd 5f c6 42 bd 53 0f c3 bd f9 ec fc 3d
       -0.10436637 -0.047552463 -0.09524407 0.123498864
000340 42 1f 0e 3d fd 3c a8 3d 1f 39 45 bd 64 a5 92 3b
       0.03469778 0.082147576 -0.048150178 0.0044752825
000350 74 73 bc 3c 5d 44 14 bd 1e 9d 19 be 0d ed 2c be
       0.023004271 -0.03619801 -0.15001342 -0.16887303
000360 3e 44 0b 3c 5d d5 ba 3d de 4e e0 bc 13 d9 e6 3c
       0.008500157 0.09122727 -0.027381357 0.02817968
000370 f2 4e 92 bc ed 68 bb bc f6 b0 e4 bc ee 01 2d bd
       -0.01785991 -0.022877181 -0.027916413 -0.04223817
000380 68 b2 e7 3b 68 a8 26 3a 7c 6e 3f 3d 3e 82 aa bc
       0.007070828 0.0006357492 0.046736225 -0.020814057
000390 5c 25 78 3a 52 c5 a5 bd 10 77 44 bc 4b 72 3a 3d
       0.0009466016 -0.080942765 -0.011991277 0.045519155
0003a0 a9 22 6a bb 08 6f a6 bb 92 3f 25 be e6 2e bb 3c
       -0.0035726225 -0.005079154 -0.16137531 0.022849511
0003b0 dd 69 29 bd bf 5d 08 be 61 ed 90 3d 45 f6 d6 3c
       -0.041360725 -0.13317011 0.070765264 0.026240477
0003c0 bf 70 de bb c3 95 0a 3e c4 2f c4 3d 20 6c b1 bd
       -0.0067883427 0.13533692 0.09579423 -0.08663201
0003d0 ff f7 49 bd 3b d0 2b bd de 8a 7a bd 62 ce ad bd
       -0.049308773 -0.04194663 -0.06116759 -0.0848663
0003e0 3d 8d ef bc ab 00 15 bd 7e f9 c7 bc 85 01 70 bd
       -0.029242152 -0.03637759 -0.02441096 -0.0585952
0003f0 be 35 64 3e f9 6a 80 3d 3d 35 01 bd a7 5b 1c 3e
       0.22286126 0.062704034 -0.031544913 0.15269338

features.4.bias f4 [64]
000000 11 52 cb bc d6 0c 16 bd cf e7 e0 3c 26 b5 9d bc
       -0.024819406 -0.036633335 0.027454285 -0.019251417
000010 8e f9 5e bd da 1c 80 3b 4d ed 65 bd 62 c7 1f bd
       -0.054437213 0.0039096894 -0.05613451 -0.039008506
000020 14 aa cc 3c 75 ff 3a bc 90 2a eb bc ac 85 69 3d
       0.024983443 -0.011413445 -0.028706819 0.057012245
000030 b2 6e f2 bb 33 7c 23 3d 92 78 ff 3b ac 05 8d 3c
       -0.00739845 0.039913367 0.0077963555 0.017214619
000040 c2 31 71 bd 6a da 28 bd 99 ec 42 3d 2a f2 28 bb
       -0.058885343 -0.04122392 0.04758892 -0.0025779107
000050 2a 0c c4 3d a6 37 1b 3d bf 4c a3 bb b4 58 6d bd
       0.095726326 0.037894867 -0.004983514 -0.057945922
000060 e7 9f 67 3d 3a 39 7d bc 51 cd a6 3c 0b 4b a5 b8
       0.05654898 -0.015455538 0.020361574 -7.881791e-05
000070 89 f1 6c 3d a4 f0 93 3d 4e 42 9f bc b4 92 c0 bc
       0.057847533 0.07223633 -0.019440796 -0.023507454
000080 85 aa 50 bd 03 5d 53 3c 85 ff 0c bd cf 50 03 bd
       -0.05094387 0.012900594 -0.03442337 -0.032059487
000090 f6 26 24 bd 01 8a 64 bd 6a 49 31 3d bc c0 04 bd
       -0.04007622 -0.055795673 0.043282904 -0.03241037
0000a0 c1 33 bd 3c 39 61 06 bd e0 00 80 bc a1 c4 99 bb
       0.023095967 -0.032807563 -0.015625417 -0.0046926294
0000b0 ed a9 0c bd 17 99 a6 3c 3c 2a c3 bc 26 27 99 3c
       -0.03434174 0.02033667 -0.02382385 0.018695425
0000c0 6a 90 44 bd 93 05 b0 3c 78 27 98 3d 5a 48 0d bd
       -0.047989286 0.021487033 0.07429403 -0.034492828
0000d0 ee a3 1b 3b 4d ea 8a bd 1e 58 e3 bc c7 7e 3d 3d
       0.0023748833 -0.067829706 -0.027751978 0.046263482
0000e0 19 f3 02 3d 21 53 da 3b 5f d4 ba 3c 95 11 5f 3a
       0.031970117 0.006662742 0.022806345 0.0008509395
0000f0 d6 be 71 bd 00 44 89 3d 4e 9f 3f 3c c6 a0 85 bc
       -0.059019886 0.06702423 0.011695696 -0.016312014

features.5.weight f4 [64]
000000 40 9c 5b 3f 8b 3e 60 3f 3c fd 52 3f b8 66 7e 3f
       0.85785294 0.87595433 0.82417655 0.99375486
000010 cf b1 4f 3f 23 7b 46 3f e7 33 61 3f ed da 44 3f
       0.8113069 0.7753164 0.8796982 0.76896554
000020 35 ec 8f 3f 28 1e 79 3f 9d 80 87 3f 3e 6f 7e 3f
       1.124396 0.9731164 1.0586125 0.9938849
000030 91 b0 85 3f 3a c4 41 3f 19 31 70 3f 09 7f 5a 3f
       1.0444509 0.7569004 0.9382492 0.8535009
000040 4c f5 70 3f f4 d2 55 3f af 31 5f 3f a5 bc 5e 3f
       0.94124293 0.83525014 0.87185186 0.870066
000050 ad c1 5c 3f 8d bc 68 3f 89 ec 71 3f 33 a7 62 3f
       0.86233026 0.90912706 0.9450155 0.88536376
000060 2f de 65 3f 99 98 4d 3f 7b e5 80 3f fc 42 56 3f
       0.8979215 0.8031097 1.0070032 0.8369596
000070 ee a9 50 3f 26 45 4f 3f 76 ab 68 3f d1 41 6e 3f
       0.8150929 0.8096489 0.9088663 0.9306918
000080 a7 91 54 3f 50 6a 60 3f a9 36 81 3f 6a 5e 49 3f
       0.8303475 0.8766222 1.0094806 0.7865969
000090 2c 15 51 3f d3 3f 74 3f 29 b4 7e 3f 1c e9 5f 3f
       0.8167293 0.9540989 0.9949365 0.8746507
0000a0 4c 68 5d 3f a3 20 6c 3f 17 af 32 3f 09 dd 67 3f
       0.8648727 0.922373 0.69798416 0.9057165
0000b0 ad fc 62 3f 3a 91 45 3f 7c 93 7a 3f 19 d4 46 3f
       0.886668 0.77174723 0.97881293 0.77667385
0000c0 de fc 47 3f 9b 66 8e 3f 37 b8 85 3f 2a a1 81 3f
       0.7812022 1.1125063 1.0446843 1.0127308
0000d0 d2 1b 4e 3f 91 69 5b 3f 66 da 3c 3f 85 9d 83 3f
       0.805112 0.85707957 0.7377075 1.0282446
0000e0 f0 cf 43 3f 02 b1 94 3f ef 69 63 3f 95 9c 86 3f
       0.7648916 1.1616518 0.88833517 1.0516535
0000f0 5d 7e 7f 3f 84 20 68 3f 75 3f 4e 3f a7 53 55 3f
       0.9980219 0.90674615 0.8056558 0.8333077

features.5.bias f4 [64]
000000 4b 23 01 bf 8d 5b 19 bf 01 2a fc be 2e b3 30 bf
       -0.5044448 -0.5990532 -0.49250796 -0.69023407
000010 43 00 02 bf 60 c5 a7 be b3 76 f5 be 4f d7 03 bf
       -0.5078165 -0.32767773 -0.47942123 -0.5150041
000020 00 1f 13 bf 23 14 ee be ed da e5 be 5d e2 22 bf
       -0.5746918 -0.46499738 -0.4489359 -0.6362665
000030 c8 06 10 bf 7f 86 c0 be 5e b6 e9 be 6e 32 dd be
       -0.5626035 -0.37602612 -0.45646948 -0.43202537
000040 06 ca f8 be 20 c3 e2 be 1d 9b 13 bf ca a9 28 bf
       -0.48591632 -0.44289494 -0.5765856 -0.6588408
000050 5c f1 21 bf 59 7e 0b bf 31 c8 fa be 8a 8c 1c bf
       -0.6325891 -0.54489666 -0.4898086 -0.61151946
000060 a3 ed 0a bf 35 a5 06 bf 8b 0e f9 be 39 8a b2 be
       -0.54268855 -0.52595836 -0.48643908 -0.3487108
000070 95 7c 12 bf ed 52 c6 be 47 03 1e bf 91 21 e5 be
       -0.5722135 -0.38735142 -0.6172375 -0.44752172
000080 d8 1c 86 be 3b ba b8 be 89 1c 3f bf 92 e0 ee be
       -0.2619388 -0.36079583 -0.74652916 -0.4665571
000090 b0 d5 01 bf c5 5a 02 bf c2 88 06 bf 34 f3 af be
       -0.50716686 -0.50919753 -0.52552426 -0.34365237
0000a0 ce 84 11 bf 4b 2a 0d bf cc f5 f6 be ec 31 f7 be
       -0.5684327 -0.5514266 -0.48234403 -0.48280275
0000b0 3b 9f 24 bf 9c f0 04 bf b2 64 51 bf 14 dc ce be
       -0.64305466 -0.5192964 -0.81794274 -0.4040228
0000c0 38 76 c7 be 74 38 09 bf ff 42 08 bf fd cf d6 be
       -0.3895738 -0.53601766 -0.5322723 -0.41955557
0000d0 83 c3 17 bf ff 97 09 bf fc 21 00 bf 87 81 17 bf
       -0.592827 -0.5374755 -0.50051856 -0.5918202
0000e0 20 06 d5 be 16 58 c3 be e0 c6 fd be 11 f6 05 bf
       -0.41606236 -0.38153142 -0.49565792 -0.5232859
0000f0 94 32 d0 be 22 1f 0a bf e6 e3 01 bf f1 d8 f7 be
       -0.40663588 -0.53953755 -0.5073837 -0.484077

features.5.running_mean f4 [64]
000000 6e 09 e2 bf 23 bf f7 bf c6 22 1d bf 9c 5e f6 bf
       -1.7659128 -1.9355205 -0.61381185 -1.9247622
000010 6c 66 27 c0 45 14 13 c0 40 2c 50 c0 75 1c 40 bf
       -2.6156263 -2.2981122 -3.2527008 -0.7504342
000020 67 b1 09 c0 08 de 36 c0 ca 4a 1c c0 3e ec 0b c0
       -2.1514528 -2.8573017 -2.4420648 -2.186294
000030 c4 c1 34 c0 c7 e8 9d 3e 96 31 8a bf d1 dd 3a c0
       -2.8243265 0.30841658 -1.0796382 -2.9197886
000040 d4 4f 73 bf b3 38 68 bf 1e ef c0 bf 50 df 0b c0
       -0.95043683 -0.90711516 -1.5072973 -2.185505
000050 c8 62 02 be 05 42 9e bf b4 92 82 bf b2 89 21 c0
       -0.12732995 -1.2363898 -1.020102 -2.5240293
000060 28 9a ec bf f8 2e fe bf e4 50 53 c0 dd 44 10 c0
       -1.8484545 -1.9858084 -3.3018122 -2.254203
000070 e1 31 f5 be 6e 21 48 bf 40 94 00 c0 a5 8a 2b c0
       -0.47889617 -0.7817601 -2.0090485 -2.6803372
000080 10 67 13 c0 98 1f 69 bf 0d b6 2a c0 9e d7 15 c0
       -2.3031654 -0.91063833 -2.6673615 -2.3412852
000090 ec 38 8e bf 18 a8 c6 bf ea 0e fc bf ae 45 29 c0
       -1.1111121 -1.5520048 -1.9692051 -2.644878
0000a0 da 9c 43 c0 00 ca d7 bf e1 b1 3a bf fd 2e 03 c0
       -3.0564485 -1.685852 -0.7292767 -2.049743
0000b0 89 26 09 c0 1d a0 55 40 aa 3d cd bf 39 10 c7 3e
       -2.142977 3.3378975 -1.6034443 0.38879564
0000c0 bc 73 06 c0 26 ca 17 c0 64 15 8a bf 8d 65 6d c0
       -2.1008139 -2.3717132 -1.0787778 -3.7093232
0000d0 8e 51 fe bd 2c f1 b1 bf c3 58 38 3e db 94 46 bf
       -0.12417899 -1.3901725 0.1800261 -0.77570885
0000e0 2e 34 9f bf 38 d1 50 c0 e3 96 eb bf 13 fd 14 c0
       -1.2437799 -3.2627697 -1.8405422 -2.3279464
0000f0 49 e1 55 c0 d1 8f 0a c0 41 c2 16 c0 56 25 9e bf
       -3.3418753 -2.1650279 -2.3556063 -1.2355144

features.5.running_var f4 [64]
000000 6f 22 06 40 17 f8 7a 40 89 31 87 40 a7 fa 82 40
       2.0958517 3.9213922 4.224797 4.093097
000010 40 1d 7f 40 4a cf b8 40 e4 d5 b6 40 ac 1f c9 3f
       3.9861603 5.775304 5.7136097 1.571279
000020 0d 51 0a 41 0a ec 99 40 d4 fb 05 41 59 c5 ab 40
       8.644788 4.8100634 8.373981 5.3678403
000030 b7 27 02 41 03 43 71 40 c7 39 1b 40 5f 3e ab 40
       8.134696 3.769715 2.4254014 5.3513637
000040 e7 d4 01 40 2b 0a ec 3f 96 40 15 40 a9 e8 49 40
       2.0286195 1.8440603 2.332067 3.1548254
000050 40 98 d1 3f 7c 73 90 40 71 57 cc 40 62 d1 41 40
       1.6374588 4.514097 6.385674 3.0284047
000060 a6 98 51 40 3b be 7f 40 d4 4f 16 41 cf 12 a2 40
       3.274942 3.9959857 9.394489 5.064796
000070 d1 91 51 40 6d 93 07 40 24 eb 74 40 b9 6a e3 40
       3.274525 2.1183732 3.8268518 7.1067777
000080 28 3c b9 40 03 ec 27 40 b5 07 c4 40 6b da 14 40
       5.7885933 2.62378 6.125941 2.3258312
000090 d3 6b 0b 40 af f4 90 40 4c c2 8e 40 bd f9 74 40
       2.178456 4.5298686 4.461218 3.8277428
0000a0 30 dd d9 40 8d 26 1f 40 38 66 41 40 e4 e4 4a 40
       6.8082504 2.486728 3.021864 3.1702204
0000b0 78 0d 6c 40 fd d3 c9 40 66 55 02 40 7e e1 18 40
       3.688322 6.3071275 2.0364623 2.388763
0000c0 4f 6f 4a 40 4d 1f 20 41 25 d1 81 40 70 de fd 40
       3.1630437 10.007642 4.0567803 7.933403
0000d0 1d 8a 0d 40 3a 3b 36 40 05 ca 5a 40 a1 fc f3 3f
       2.2115548 2.847365 3.4185803 1.9061471
0000e0 96 9d 7b 40 2b a7 01 41 97 ac af 40 02 c7 c5 40
       3.9314933 8.1033125 5.489818 6.180543
0000f0 02 58 e4 40 56 3b 88 40 84 b0 6c 40 f4 40 f2 3f
       7.135743 4.257243 3.6982737 1.8926072

features.8.weight f4 [128, 64, 3, 3]
000000 6f 73 8f b9 f6 64 4a 3d 68 80 05 3e 39 fd 47 bd
       -0.0002736109 0.04941269 0.13037264 -0.048825476
000010 c1 28 b2 3d f9 76 e0 3d fa 12 1a bd 95 ec db bb
       0.086991794 0.10960192 -0.037615754 -0.0067115524
000020 83 66 13 3c ae c6 b5 bd b7 43 df bc 47 6b fe bc
       0.008996609 -0.08875786 -0.027253969 -0.031057013
000030 ac 9a f1 bc c9 10 b4 3c cb 26 bc 3d c4 ec a9 3c
       -0.029492699 0.02198066 0.09187087 0.020742781
000040 9b da 2c bd 67 0c 1f 3c f6 ce ac bd cd 90 c7 bd
       -0.042200666 0.009707547 -0.08437912 -0.097444154
000050 1c 38 1d 3b af 02 0f bd 0d 63 94 bb e4 c7 5e bd
       0.0023989743 -0.03491467 -0.0045284093 -0.05438985
000060 be 0d 08 3d 58 96 07 3d 9d 8e 44 be a8 a8 9f 3d
       0.03321623 0.033102363 -0.19195028 0.077958405
000070 49 7d 17 3e a7 42 83 3c 3a 78 f4 bc e4 e9 98 3e
       0.14793886 0.016022993 -0.029842485 0.29865944
000080 02 c8 9c 3d f3 d0 1e 3d 2f 6f 6a 3e 82 71 2a 3d
       0.07655336 0.03877349 0.22893976 0.041612156
000090 7f 4d 33 bd 38 bb b5 bc 75 81 33 3c ad f2 a6 bd
       -0.043775078 -0.022184 0.010956158 -0.081517555
0000a0 1e 0e a9 bd 75 48 c2 bd f1 81 15 3e 28 2a e4 3c
       -0.08254646 -0.09486476 0.1460035 0.027852133
0000b0 cf d0 12 be 2b ab 1e bc 9c f7 a2 3c 6e ab 20 3b
       -0.14337467 -0.009684364 0.01989346 0.0024516243
0000c0 87 27 7b 3c 07 4c e8 3c 7b 77 0a bc 9d 56 ea bc
       0.015329248 0.028356565 -0.008451338 -0.028605754
0000d0 96 67 89 bd 75 73 e8 3b 64 b4 aa 3d d3 7a 22 3e
       -0.067092106 0.0070938417 0.08335188 0.15867166
0000e0 59 b1 6d bd 1d 59 a5 bc 02 f3 ac 3d 63 e1 d8 bc
       -0.05803046 -0.020184094 0.084447876 -0.02647466
0000f0 93 96 9d bc 63 67 e0 3d 3f 6f 49 3d 3e db 39 be
       -0.019236838 0.109572195 0.04917836 -0.1815004
000100 24 2d 7a bd a6 b9 e9 3c 6e c2 3a be 76 32 d0 bd
       -0.061078206 0.028530907 -0.18238232 -0.10165875
000110 74 a3 cd 3d a0 45 cb 3c 48 a6 4c 3d 19 4a f8 3d
       0.10040942 0.024813473 0.049963266 0.12123508
000120 0b 9a 9c bd ae 93 59 bd 89 d3 dd bc 13 2a 10 3e
       -0.07646569 -0.053119354 -0.027078407 0.1407855
000130 16 db 7d bc 97 85 cc bd fc 06 45 3e 3c 98 c2 bd
       -0.015494129 -0.09986418 0.19240946 -0.09501693
000140 b7 2b 09 be 22 2c 22 bc d6 de 1e 3d 83 6d d7 3c
       -0.13395582 -0.009898217 0.03878673 0.026297336
000150 94 1f 0b bc 4a f8 d3 bc 55 80 7b bc 9f 4b f2 3c
       -0.0084914155 -0.02587523 -0.015350421 0.029577075
000160 51 7b 68 bd 7f 2c e0 bd 31 3b a6 bd bd c4 f5 bc
       -0.05675823 -0.10945987 -0.081167586 -0.030001039
000170 5d 9f 29 bd 9a 95 14 3d ba 60 e4 3d 9b 6d 7b 3c
       -0.041411746 0.036275484 0.11151262 0.015345956
000180 c4 81 8f 3e 30 a9 59 3e da b3 e6 bd dc 4e 8f 3d
       0.2802869 0.21255946 -0.11264773 0.06997463
000190 64 48 a2 3c a1 04 40 bd 29 cf f1 3c 5b 4d 0b 3e
       0.01980991 -0.046879414 0.029517727 0.13603728
0001a0 ec fa 85 3c 3e 00 31 3d 7c eb c3 3d 8d f8 fa 3c
       0.016355 0.04321312 0.095663995 0.030636096
0001b0 7a cd 40 3e 2c ef 76 3d a9 5f 41 bd 75 35 80 3e
       0.18828383 0.060286686 -0.04721037 0.25040784
0001c0 98 f0 26 3e 74 1c 93 bd ee 92 5a 3e 8e cc 70 bd
       0.16302717 -0.071831614 0.21345112 -0.05878883
0001d0 5a f2 de bd 2c ea 66 bd 3e 5a 2e 3d 03 19 8a bd
       -0.10886069 -0.056375667 0.04256653 -0.06743052
0001e0 90 21 f7 bc 74 e8 18 3d 98 18 e2 bd 9b 4a b0 3d
       -0.030167371 0.03733106 -0.11039847 0.0860798
0001f0 2c 70 8b bb 87 c7 d6 3c 5f 6b a3 3c ac 03 81 3c
       -0.0042553153 0.026218189 0.01994866 0.015748821
000200 99 ce 98 3d 0e 0f bb 3d c0 63 b2 3c d8 2d 34 bb
       0.074612804 0.09133731 0.02177608 -0.0027493145
000210 de 01 e0 bd 4a 6f f4 bd 6e d7 a6 3d 9c 1d 46 3d
       -0.10937856 -0.11935289 0.08146559 0.04836808
000220 47 61 2a 3d 59 53 22 3e 6b d5 77 3d ea 47 81 3d
       0.041596677 0.15852107 0.060506266 0.06312545
000230 d0 ca 64 3d f3 94 22 bd 30 f1 71 3d 19 72 03 bd
       0.05585748 -0.03969283 0.059067905 -0.032091234
000240 e0 f2 53 be f1 dc 1d be 2b 22 78 bd 7b 27 08 be
       -0.20698118 -0.15416314 -0.06057946 -0.1329631
000250 f5 6c 1c be e2 80 52 bb f4 b5 44 3d d8 fc af bd
       -0.15275939 -0.0032120277 0.048025087 -0.08593148
000260 2a 9d 52 b8 e5 ab d4 3c 8d df 36 3d 9d 96 db bc
       -5.0214272e-05 0.025960872 0.04464679 -0.026805216
000270 62 83 a7 bc 3d 7f 92 3d 2d 6d 41 3d 3b d4 87 bd
       -0.02044839 0.07153175 0.04722326 -0.066322766
000280 76 41 5a bc 34 10 a4 3d 49 5d 3f be 65 7b 17 bd
       -0.013321271 0.08010903 -0.18687929 -0.036982913
000290 da 7d 36 3e 64 cb 34 be c4 1f 95 bd b5 06 a3 3d
       0.17821446 -0.17655712 -0.072814494 0.07960264
0002a0 5d d8 2b be e0 46 10 be 55 f2 ed 3d bd 7e b4 bc
       -0.16781755 -0.14089537 0.11618487 -0.02203309
0002b0 17 dd cc bc 58 7e eb 3c 9a 2c 98 bd 1f 94 9b 3d
       -0.025007768 0.028746769 -0.07430382 0.07596611
0002c0 8d 72 bc 3d d0 3e b9 bc df e1 03 3e 7f ca 96 3d
       0.09201536 -0.02261296 0.12879132 0.07362842
0002d0 a3 62 b0 bd f0 7f 2e 3d 26 fe d3 bc d8 bd 12 be
       -0.086125635 0.04260248 -0.025878023 -0.14330232
0002e0 1d 51 c9 3c 43 ee e9 3d 15 4f dd bd 6c 82 ca bd
       0.02457481 0.11422398 -0.10806099 -0.09888157
0002f0 51 5d 8c bc 79 09 27 3c 37 24 e6 bc ee 90 38 bc
       -0.01713434 0.01019513 -0.02809344 -0.011265023
000300 a2 4d f4 3d 7b 94 c8 3d b1 f9 43 3d 93 c2 41 3e
       0.1192887 0.097939454 0.047845546 0.1892188
000310 ef 8d 66 3d 01 4b b2 3d f1 2a 02 3d 26 c9 f7 3c
       0.056287702 0.08705712 0.031779233 0.030247282
000320 fc 25 dc 3d d5 91 fc bd f7 0a a9 bd 76 fe e7 3c
       0.107494324 -0.12332503 -0.082540445 0.028319579
000330 44 c7 a5 3b 86 62 79 bd d1 1f 9d bd c9 55 26 be
       0.0050591547 -0.060884975 -0.07672084 -0.16243662
000340 6b c5 84 bd 91 3f 1e 3c 6d 60 87 be 27 88 ae 3d
       -0.06482967 0.00965871 -0.26440755 0.08522063
000350 34 ef 37 3e 91 9e b5 bd 44 74 cc bb 32 cc 08 3e
       0.17962343 -0.08868135 -0.006239446 0.13359144
000360 9d c0 11 3d 7b 9c c1 3d de 1e 52 bd d2 e5 b4 bd
       0.03558408 0.094536744 -0.05129897 -0.08832897
000370 51 ca e1 3d 92 a6 1e 3d 84 4a fd bd 3e fc 69 3d
       0.11024917 0.038733073 -0.12367728 0.057125323
000380 01 e2 09 3e c4 93 ec bd fa ae 96 bd f3 28 a1 bd
       0.1346512 -0.115516216 -0.07357593 -0.078691386
000390 17 e0 3c bd e1 16 fd bc 88 11 6e 3c 6b ea ae bd
       -0.046112146 -0.030894699 0.014530547 -0.085408054
0003a0 81 83 8e bd 52 28 ca 3d 62 69 66 3d 07 b9 16 bd
       -0.06958676 0.09870972 0.056252845 -0.03679755
0003b0 b6 f5 b7 bd bb 53 ef 3d 38 8c 8b bc 53 aa aa bd
       -0.089824125 0.11685892 -0.017034635 -0.08333268
0003c0 1e cc b2 3c 26 54 c1 bd fe dd 01 be 4c b6 ad bd
       0.021825846 -0.09439878 -0.1268234 -0.08482036
0003d0 71 4e 9f bd 54 57 8a bd be 6b 84 be c4 44 2a bc
       -0.077786334 -0.06754938 -0.2586345 -0.010392372
0003e0 ea e9 3c bb d8 3a d5 bd f3 c9 d2 bd e4 8e a1 3d
       -0.0028825947 -0.10411614 -0.10292425 0.07888582
0003f0 3d 1e 3f 3c ca d4 c1 bd fd 88 8b bd 7a bc 26 bd
       0.011664924 -0.094644144 -0.06813238 -0.04070709

features.8.bias f4 [128]
000000 02 7d f3 bc 36 af e1 bc 7c 0a 10 3d fc 39 9b 3c
       -0.029722694 -0.027549367 0.03516625 0.018948548
000010 e1 e1 04 bd 76 61 e2 3c da 7e 15 bd 0d 15 a6 bc
       -0.032441977 0.027634364 -0.03649793 -0.02027371
000020 57 f1 f8 bc 43 a4 8b bb 28 60 7c bc a2 a3 2a bd
       -0.030388517 -0.004261525 -0.015403785 -0.04165996
000030 af e5 c4 ba a1 0f 8b 3c 4a da 1c bd 83 b8 47 3b
       -0.0015022064 0.016975226 -0.038294114 0.0030474968
000040 e7 b2 b6 bc a5 bb fe bc 41 e2 92 3b 4c bf 95 bb
       -0.022302104 -0.031095335 0.004482538 -0.0045699235
000050 f4 41 aa 3c 47 7d 1e bc dc e2 68 3c 62 e6 d3 bc
       0.020783402 -0.009673423 0.014214244 -0.025866691
000060 35 85 8e 3c 56 89 5f 3c 59 2a 93 bb 77 2f 0b 3d
       0.017397502 0.013643583 -0.004491132 0.033980813
000070 ce 5f 04 bc 0f ae f7 3c 76 31 0a bd 90 ca 85 bc
       -0.008079482 0.030234365 -0.033738576 -0.01633194
000080 70 0f 10 3d 45 45 93 bc de f0 c2 bc 79 c2 47 3d
       0.035170972 -0.017977366 -0.023796495 0.048769448
000090 0c 79 4a 3d 53 fc 24 3d 64 cf ca bc c4 de 19 3d
       0.049431846 0.040279698 -0.024757095 0.03756596
0000a0 93 df 9e bb d9 5b 54 bc ab fa a7 3b 08 5a d8 bb
       -0.0048484295 -0.012961351 0.0051263175 -0.0066025294
0000b0 4f 99 36 bc 42 e4 c3 3c 2a 9a 07 bd 01 5e d1 3c
       -0.01114495 0.023912553 -0.033106007 0.02555752
0000c0 1a 6f 45 3b a4 2b 3f bc e0 b4 98 bb 61 07 06 bd
       0.0030126036 -0.01166812 -0.004660234 -0.03272188
0000d0 3a 1d c6 bc 0c cf ba bc 46 57 fb 3c d1 7f b8 bc
       -0.024183858 -0.022803806 0.030681264 -0.022521885
0000e0 b2 36 1b bd f4 c4 18 3d bc 56 e2 bc cf 3e f4 bc
       -0.03789396 0.037297204 -0.027629249 -0.029815106
0000f0 f2 54 04 3d 98 28 24 bc 50 2a dd 3c 21 db 09 bd
       0.032307573 -0.010019444 0.026997715 -0.033656243
000100 77 e7 98 bc 55 55 ac ba 3c 23 f2 3b cc 18 b0 bc
       -0.018665059 -0.001314799 0.007389454 -0.0214962
000110 ea 00 2b 3d 9a 1f c5 3c e2 41 1a 3d ee 22 6a 3c
       0.04174892 0.02406292 0.037660487 0.014290554
000120 f4 0b 06 bd 84 dc 05 bd 4d a9 93 bc 57 f0 04 bc
       -0.032726243 -0.032681003 -0.018025065 -0.008113942
000130 81 5a 93 3c e5 a1 97 bc 11 74 79 3c 36 a3 e4 3c
       0.017987492 -0.018509815 0.015225426 0.027909856
000140 f2 a1 1c bc c7 ca 30 bd a1 95 4a bc ca 0e 65 bc
       -0.009560095 -0.043162134 -0.012364776 -0.013980577
000150 64 06 8d 3b 80 b3 81 bc fc d7 1d bd f0 27 a6 3c
       0.0043037403 -0.015832663 -0.038536057 0.020282716
000160 19 08 19 3d b6 73 08 3d dd dd 92 3b 49 7c c5 bc
       0.03736124 0.033313476 0.0044820146 -0.024107115
000170 7d c5 b4 3c 9d 47 1b 3d 28 41 11 3d c9 75 49 bc
       0.022066826 0.037910093 0.03546253 -0.012296149
000180 fa e2 59 3d 52 b3 3a 3c 15 ee 58 3a 33 fd 3e 3b
       0.053194977 0.011395292 0.0008275223 0.0029142618
000190 bc 50 dd 3a ec 2f 40 3d e8 81 28 bd 62 59 1d bc
       0.0016885023 0.0469207 -0.041139513 -0.00960383
0001a0 80 0b d4 3c cb e2 32 bd 91 0d 8c bc e7 8a ca 3c
       0.02588439 -0.043673318 -0.017096313 0.024724437
0001b0 15 97 11 bd 86 36 25 bc 1c 38 09 3d 39 8a e6 3b
       -0.035544474 -0.0100838 0.033500776 0.0070355204
0001c0 c7 35 12 3d f3 aa d8 bc 44 fe 08 3d 88 10 19 3d
       0.035695817 -0.026448702 0.03344561 0.03736928
0001d0 99 e2 03 3c cc 2a e3 bc 61 5f 3e bc f7 d1 f6 3c
       0.008049631 -0.027730368 -0.01161942 0.030129416
0001e0 a2 9a 22 bd e9 07 ba bc 42 7a bc bc b3 d7 5e bc
       -0.03969825 -0.02270885 -0.023007516 -0.013601231
0001f0 53 1f a8 bc f9 f3 c6 3b 42 65 89 3c 49 a2 44 bc
       -0.020522749 0.0060715643 0.016771916 -0.012001582

features.9.weight f4 [128]
000000 12 0c 36 3f ae 39 63 3f 81 5b 35 3f 87 7f 2d 3f
       0.7111217 0.8875989 0.7084275 0.67772716
000010 67 da 30 3f 9d 5b 51 3f 87 20 30 3f 38 e2 35 3f
       0.69083256 0.81780416 0.6879963 0.7104831
000020 d3 96 42 3f 8f 1f 38 3f 18 f7 21 3f e8 5b 25 3f
       0.7601139 0.71923155 0.6326766 0.6459336
000030 69 e5 2c 3f e3 f2 2a 3f df 6a 2c 3f 8c 9f 31 3f
       0.6753755 0.66776866 0.6735057 0.69384074
000040 6b a1 27 3f 6a 77 1f 3f a8 52 35 3f 0c f6 30 3f
       0.6548068 0.62291586 0.7082925 0.6912544
000050 91 71 3d 3f 8f f5 24 3f d5 8f 22 3f 13 10 2e 3f
       0.74001414 0.6443719 0.6350072 0.6799328
000060 38 c1 2c 3f d8 ee 3c 3f 75 73 30 3f e5 e4 23 3f
       0.6748233 0.73801947 0.68926173 0.6402114
000070 11 2f 33 3f 9b d4 20 3f e8 88 32 3f ef c6 26 3f
       0.6999369 0.6282441 0.6974015 0.651473
000080 65 bc 2c 3f 39 de 1b 3f bc c9 2c 3f 38 f9 33 3f
       0.6747497 0.6088596 0.6749532 0.7030215
000090 f5 f1 35 3f ed 30 38 3f 37 79 1f 3f ee 6b 22 3f
       0.7107232 0.71949655 0.62294334 0.6344594
0000a0 4b 0b 31 3f 30 10 33 3f 19 54 36 3f a5 e6 35 3f
       0.69157857 0.69946575 0.7122207 0.7105506
0000b0 58 a5 23 3f e8 d1 2d 3f 35 6a 2c 3f 75 e5 25 3f
       0.6392417 0.67898417 0.6734956 0.6480325
0000c0 9b b6 32 3f 82 e8 2e 3f 84 5d 2f 3f 01 7c 2b 3f
       0.69809884 0.6832353 0.6850207 0.6698609
0000d0 2e ab 3a 3f 11 42 22 3f c1 fc 3b 3f 22 c0 2e 3f
       0.7291745 0.6338206 0.73432547 0.6826192
0000e0 ad 0a 34 3f e6 74 27 3f 54 ff 2e 3f 9a 2c 29 3f
       0.7032879 0.6541275 0.6835835 0.6608368
0000f0 4f 09 34 3f db 5a 23 3f 4e 6b 29 3f 73 e3 3c 3f
       0.70326704 0.6381051 0.6617936 0.7378456
000100 a8 6d 31 3f 17 e0 4a 3f 17 d5 46 3f b0 bd 2e 3f
       0.6930795 0.79248184 0.776689 0.6825819
000110 bd a2 34 3f 5d b8 38 3f 25 76 28 3f 50 1a 2d 3f
       0.7056082 0.72156316 0.65805274 0.67618275
000120 8c dd 27 3f 8d f2 26 3f b1 48 34 3f 9e f1 29 3f
       0.6557243 0.65213853 0.7042342 0.66384304
000130 8f 62 3e 3f a1 a3 35 3f 7c 32 31 3f 40 27 3d 3f
       0.7436914 0.709528 0.6921766 0.73888016
000140 1d d4 2a 3f c9 5c 24 3f 7d d1 2e 3f 71 52 2a 3f
       0.6672991 0.6420408 0.68288404 0.66532046
000150 09 ff 3a 3f 24 37 2c 3f 7a c5 27 3f 8c 6c 37 3f
       0.730454 0.6727164 0.655357 0.71650004
000160 b2 57 2f 3f b0 d6 32 3f 2e 62 27 3f 5a a7 20 3f
       0.6849319 0.6985884 0.65384185 0.6275536
000170 41 f6 3b 3f 69 09 54 3f 91 e8 3b 3f 8b f7 47 3f
       0.7342263 0.8282686 0.73401743 0.78112096
000180 fe 37 2c 3f 67 e5 2c 3f b3 ba 34 3f 72 e3 36 3f
       0.6727294 0.6753754 0.7059738 0.71440804
000190 be 3a 1e 3f 29 ed 16 3f 81 b4 34 3f 65 5c 31 3f
       0.61808383 0.5895563 0.7058793 0.6928161
0001a0 fd 07 27 3f 8a 98 33 3f 9e d9 2e 3f b0 14 25 3f
       0.65246564 0.7015463 0.6830081 0.6448469
0001b0 d4 b7 2f 3f 40 b7 2e 3f f7 02 2a 3f 53 6b 2c 3f
       0.68639874 0.6824837 0.66410774 0.67351264
0001c0 fd f3 2b 3f d4 43 26 3f 61 6a 25 3f 20 31 2c 3f
       0.6716917 0.6494725 0.64615446 0.6726246
0001d0 e5 2c 3e 3f 9d 7c 2a 3f 2b f7 21 3f 74 74 2d 3f
       0.74287254 0.66596395 0.63267773 0.6775582
0001e0 c9 bc 30 3f 7b e7 35 3f aa 28 3e 3f a1 91 39 3f
       0.69038063 0.71056336 0.742808 0.7248784
0001f0 15 26 32 3f df 48 40 3f 52 cc 33 3f 4c 0c 32 3f
       0.6958936 0.7511119 0.70233643 0.69550014

features.9.bias f4 [128]
000000 dd 24 38 bf c2 9e 4a bf b9 1f 30 bf 26 7e 15 bf
       -0.7193125 -0.79148495 -0.68798405 -0.5839561
000010 37 9a 23 bf 77 45 2c bf c3 f8 43 bf b5 c8 49 bf
       -0.6390719 -0.67293495 -0.76551455 -0.7882188
000020 dd 41 49 bf f1 b5 26 bf f9 cb 33 bf 77 c3 39 bf
       -0.78616124 -0.6512137 -0.7023311 -0.7256388
000030 bf 41 3e bf 3f f0 49 bf 2d 6f 26 bf 30 ac 34 bf
       -0.7431907 -0.7888221 -0.6501339 -0.7057524
000040 f3 6c 1a bf 3f 09 13 bf 51 20 0e bf dd 12 20 bf
       -0.60322493 -0.57435983 -0.5551806 -0.62528783
000050 9d 3a 31 bf 59 b9 42 bf 7a ed 3a bf 86 c2 1e bf
       -0.6923006 -0.7606407 -0.7301861 -0.6201557
000060 57 8f 31 bf 34 6c 34 bf f4 a4 2d bf d3 df 2c bf
       -0.69359344 -0.70477605 -0.67829823 -0.6752903
000070 29 11 16 bf 2b 35 2e bf 98 55 31 bf f5 36 1e bf
       -0.58619934 -0.6804988 -0.6927123 -0.6180261
000080 4f cd 43 bf ac 95 20 bf e5 0f 42 bf 89 3d 32 bf
       -0.7648515 -0.6272838 -0.75805503 -0.69625145
000090 df 70 39 bf 64 11 20 bf 72 06 1b bf 71 60 1a bf
       -0.7243785 -0.62526536 -0.6055671 -0.6030341
0000a0 94 c3 30 bf 90 4c 46 bf 4e 8d 0f bf 98 e9 37 bf
       -0.6904843 -0.77460575 -0.5607499 -0.7184081
0000b0 12 e5 3e bf ad 0b 06 bf 4a cd 12 bf 70 1a 42 bf
       -0.74568284 -0.52361566 -0.57344496 -0.7582159
0000c0 19 f9 35 bf c5 2c 29 bf 6e 80 0a bf 88 d3 11 bf
       -0.7108322 -0.6608394 -0.5410222 -0.56963396
0000d0 8f 77 34 bf f7 99 01 bf 3c 5a 2b bf f1 7c 40 bf
       -0.7049493 -0.50625557 -0.6693456 -0.75190645
0000e0 04 65 3a bf 31 cb 2e bf 43 13 34 bf fd ea 29 bf
       -0.7281039 -0.68278795 -0.7034189 -0.6637419
0000f0 ee d1 24 bf 18 95 2e bf 5a 96 13 bf e1 ba 16 bf
       -0.6438283 -0.6819625 -0.57651293 -0.58878905
000100 04 42 3c bf d7 1e 1c bf bf e1 1c bf bd c2 48 bf
       -0.7353823 -0.6098456 -0.6128196 -0.7842215
000110 fa 5a 33 bf 8e 05 3e bf 3e 2f 36 bf b3 88 41 bf
       -0.70060694 -0.74227226 -0.71165836 -0.7559921
000120 98 3f 30 bf c1 54 45 bf 0d b0 30 bf 47 76 33 bf
       -0.68847036 -0.7708245 -0.6901863 -0.7010235
000130 00 7d 2d bf 1c 31 1e bf 96 ad 28 bf 58 ca 4a bf
       -0.6776886 -0.61793685 -0.6588987 -0.79215
000140 7d 21 3e bf 03 10 32 bf 0e f2 1d bf 38 1f 3a bf
       -0.7426985 -0.6955568 -0.6169747 -0.72703886
000150 2c 74 4d bf c5 aa 33 bf 6f 15 42 bf dd 95 51 bf
       -0.8025539 -0.7018245 -0.75813955 -0.818693
000160 c3 67 24 bf 90 8e 3c bf cf 76 5b bf 6c 3b 1d bf
       -0.6422083 -0.73655033 -0.8572816 -0.61418796
000170 8d 86 30 bf 87 c9 3f bf 18 17 4f bf 54 bf 37 bf
       -0.6895531 -0.7491688 -0.80894613 -0.7177632
000180 dd fb 15 bf 8f d9 2d bf 90 70 51 bf b3 0d 27 bf
       -0.5858744 -0.67910093 -0.8181238 -0.6525528
000190 47 61 3c bf 56 fd 3a bf 1f 0a 3e bf 00 eb 4e bf
       -0.73585933 -0.7304281 -0.74234194 -0.8082733
0001a0 dc 39 1b bf 98 03 3f bf 24 8c 21 bf 72 8f 32 bf
       -0.6063516 -0.7461486 -0.6310446 -0.6975013
0001b0 c8 b3 13 bf 83 e0 5e bf fd 2a 3b bf 10 87 32 bf
       -0.576962 -0.8706133 -0.7311247 -0.6973734
0001c0 84 61 37 bf 12 8d 1f bf 5f b4 2c bf 8c 3c 10 bf
       -0.7163317 -0.6232463 -0.67462724 -0.5634239
0001d0 2f 37 3a bf fa a4 21 bf aa 96 2f bf b1 5a 34 bf
       -0.72740453 -0.6314236 -0.6858927 -0.70450884
0001e0 1b 28 32 bf 7d 52 32 bf cb 86 45 bf 84 eb 2f bf
       -0.69592446 -0.6965712 -0.771588 -0.68718743
0001f0 1c 17 25 bf f7 00 27 bf ce 8b 32 bf 62 2c 20 bf
       -0.6448839 -0.6523585 -0.69744575 -0.6256772

features.9.running_mean f4 [128]
000000 06 14 5b bf 8a c1 08 c0 a3 54 47 3d fa f7 09 c0
       -0.8557743 -2.1368127 0.0486647 -2.1557603
000010 72 2c e0 bf d5 e9 c7 bf cf 7b c3 bf a4 47 aa bf
       -1.7513564 -1.5618235 -1.5272158 -1.3303113
000020 d3 ab 18 c0 ec 98 51 c0 32 54 24 bf 13 f2 13 be
       -2.3854873 -3.2749586 -0.6419097 -0.14447813
000030 b3 ea be bf 47 f0 a0 bf c0 18 b1 bf 33 4f d0 be
       -1.4915375 -1.2573327 -1.3835678 -0.40685424
000040 08 53 d6 bf b0 f8 33 bf 9b 38 21 c0 b0 4d 08 c0
       -1.6744089 -0.7030134 -2.51908 -2.1297417
000050 39 e9 23 c0 f4 17 e6 be e5 c7 b4 bf 41 5d e1 bf
       -2.5611098 -0.4494015 -1.4123503 -1.7606584
000060 4d 94 b7 bf 3d 1d 1b c0 3d d1 70 bf e3 94 e2 bf
       -1.4342133 -2.4236596 -0.9406927 -1.7701687
000070 67 86 27 c0 e4 93 40 bf df b9 4c bf 5e 2a 8d bf
       -2.6175783 -0.75225663 -0.79971117 -1.1028554
000080 f1 25 a9 bf d9 1c 08 c0 1b 18 d5 bf b2 ea ee bf
       -1.3214704 -2.1267607 -1.6647981 -1.8665373
000090 9e 56 f8 bf fa 93 20 c0 84 12 54 bd fb 91 73 bf
       -1.9401433 -2.5090318 -0.05177547 -0.95144624
0000a0 28 fc c5 bf 1a 7f a3 bf 93 ea 10 c0 6e f1 96 bf
       -1.5467577 -1.2773163 -2.2643173 -1.1792428
0000b0 3d c0 1e bf 92 8d 1e c0 0e ca 17 c0 23 07 b5 3d
       -0.6201208 -2.4773908 -2.3717074 0.08839252
0000c0 ef 49 bf bf 95 1a 03 c0 32 51 ea bf 37 22 5d c0
       -1.4944438 -2.0484974 -1.8306029 -3.4552133
0000d0 91 34 92 bf b3 fd 42 c0 b6 b5 24 bf 40 50 0c c0
       -1.1422292 -3.0467346 -0.6433977 -2.192398
0000e0 7a c9 15 c0 1a 59 96 bf 2d 0b b5 bf 3c f2 07 c0
       -2.3404222 -1.1745942 -1.4144036 -2.1241598
0000f0 28 0e e1 bf 1d ec 81 bf de c4 05 c0 b3 e3 4c c0
       -1.7582445 -1.0150181 -2.0901408 -3.2013977
000100 a7 36 e0 bf 05 0e aa bf f0 06 11 c0 bc 94 44 bf
       -1.7516679 -1.3285528 -2.2660484 -0.7678945
000110 c9 4c 9e bf 46 84 fb bf c4 63 de bf 72 fa da be
       -1.2367183 -1.9649742 -1.7374196 -0.427692
000120 4a 9b 4d bf ca f2 0b bf 8e 8b 13 c0 bc ac 3e bf
       -0.8031508 -0.5466734 -2.3053927 -0.7448232
000130 71 1e 18 c0 a9 66 de bf 79 f9 41 c0 06 ff 83 bf
       -2.376858 -1.7375079 -3.0308516 -1.0312202
000140 b6 8b 01 3f a4 a6 3c bf aa ad 13 c0 67 60 8f bf
       0.50603807 -0.73691773 -2.3074746 -1.1201295
000150 37 3e 88 bf f8 d8 85 bf 38 ab 84 bd 16 5c 2f c0
       -1.0643986 -1.0456839 -0.0647797 -2.7399955
000160 c6 d9 1a c0 eb 7d f7 bf 7f 37 3a bf c8 36 c2 be
       -2.4195418 -1.9335302 -0.7274093 -0.3793242
000170 a8 4b 59 bf 56 ab e1 bf fc 81 a7 bf c6 f8 a1 bf
       -0.8488107 -1.7630413 -1.3086543 -1.2654045
000180 b2 b2 d3 bf 05 20 8e bf c9 62 99 bf 82 6c 06 c0
       -1.6538908 -1.1103522 -1.1983272 -2.1003728
000190 aa 4e 33 be 06 e1 2b be ec 50 a2 bd a7 7f d6 bf
       -0.17510477 -0.16785058 -0.07925591 -1.6757706
0001a0 72 3a c9 bf f6 32 ab bf f2 ee 99 bf f7 05 17 bf
       -1.5720961 -1.3374927 -1.2026045 -0.58993477
0001b0 18 e3 0e c0 7a a9 26 bf e8 03 db bf 76 63 a9 bf
       -2.2326107 -0.6510235 -1.7110567 -1.3233478
0001c0 38 dd a5 bf b7 85 8c bf 62 72 15 bf 0b 95 a9 be
       -1.2958136 -1.0978307 -0.5837766 -0.33121523
0001d0 c6 b5 09 bf b4 c0 9f bf f4 fa 36 bf fd 67 d5 bf
       -0.5379299 -1.2480683 -0.71476674 -1.667236
0001e0 be 8d ad bf 2a 95 1c c0 c8 d5 b3 bf 04 b0 1a c0
       -1.3558881 -2.4466043 -1.4049616 -2.4169931
0001f0 60 fd 10 c0 59 12 12 c0 ae ed 8e bf 31 2e 1c c0
       -2.2654648 -2.2823699 -1.1166284 -2.4403193
